model/model3_1.pt (torch, 746615 bytes, 35 tensors)

conv2d.0.weight f4 [16, 1, 3, 3]
000000 55 9e b9 bd 5b 32 98 bd 49 0e c4 3d 2a 99 80 bd
       -0.090634026 -0.074314795 0.09573037 -0.06279214
000010 db 6b cc bd 40 88 2a bd 48 b3 01 be de 70 37 bd
       -0.09981509 -0.041633844 -0.12666047 -0.044785373
000020 fb fb a6 3d 1c 85 40 bc 60 6e 00 3c b5 9d 1c be
       0.0815353 -0.011750486 0.007838815 -0.15294535
000030 10 f1 7a be 49 52 0a be 73 29 e9 bd 6a 33 7c 3e
       -0.2450602 -0.13507952 -0.11384859 0.24628988
000040 a4 0f c7 3d 25 84 8c 3e 69 e0 8b 3d 52 d9 fc 3c
       0.0971978 0.27444568 0.06829912 0.030865345
000050 d0 d9 69 3d 49 19 d9 3d 91 05 54 3d 1d a7 0d 3d
       0.057092488 0.10600526 0.05176312 0.0345832
000060 9c 25 86 3c 40 77 7a 3c 8d 0e 63 bd 94 23 37 be
       0.016375355 0.0152872205 -0.0554338 -0.17884666
000070 27 25 8e 3d 23 25 44 be 8a b4 59 bd 34 6a 13 3e
       0.0694068 -0.19154792 -0.05315069 0.14395982
000080 d3 ba af bc 87 3f c6 3d a5 94 77 3e 8d ea 3e 3c
       -0.02145139 0.09680086 0.24177797 0.011652601
000090 e0 ac 65 bc 0c f1 dd 3d 48 d6 39 3e c9 74 ef 3d
       -0.014018267 0.10836992 0.18148148 0.11692197
0000a0 0c 07 01 3e ff 5f 9e 3d 97 27 7c be a3 38 16 be
       0.12600344 0.077331536 -0.24624477 -0.14670043
0000b0 b2 b2 e5 bd e4 91 43 bd 08 f2 d4 3c ec 14 91 bd
       -0.11215724 -0.047746554 0.025994316 -0.07084069
0000c0 9b 6a 02 be 54 cb 8e 3d f9 82 81 bd e3 50 08 bd
       -0.1273598 0.069723755 -0.06323809 -0.033280265
0000d0 11 2a 00 bb c5 62 33 bd 1a af 9a 3e 2e ef d1 3d
       -0.0019556324 -0.043795366 0.30211717 0.10250698
0000e0 7f 64 f6 3d 89 60 0b 3e b1 6d 04 be 4b c2 59 be
       0.12030887 0.13611044 -0.12932469 -0.21265523
0000f0 a1 3a fa bd 17 b0 db bd 80 d0 d3 bd 15 5a 3c be
       -0.12218214 -0.10726946 -0.103425026 -0.18393739
000100 e8 42 2c be 37 66 c3 bd ef b3 35 3e 27 83 c0 3d
       -0.16822398 -0.0954098 0.1774442 0.09400015
000110 cc 94 28 be 45 2d 5f bd 0d 56 30 3e 2c fc 8a 3e
       -0.16463012 -0.05448653 0.17220326 0.27145517
000120 5a e4 73 be ca 48 e6 bd c6 68 5f be ca b8 5e 3d
       -0.23817578 -0.11244352 -0.21817312 0.054375447
000130 11 f4 61 3c 9b f3 80 3d 60 ee 87 3e 3f eb a8 3c
       0.0137911 0.06296464 0.26549053 0.020619987
000140 2f 26 27 3e e9 44 68 3e 44 38 ef 3d fe d7 50 3e
       0.1632316 0.22682537 0.11680654 0.20394894
000150 74 b7 6b bc 13 a8 0e be 1f 06 d5 bd 0c f5 d9 bd
       -0.014387 -0.13931303 -0.10401558 -0.10642442
000160 06 6a 06 be 8b f5 fb bd af bc ae bc 45 d2 9b 3d
       -0.13126382 -0.12302693 -0.021330206 0.07608465
000170 b1 a9 2b be 3a a2 d6 3d a7 c2 8a 3d a6 1c 21 be
       -0.16763951 0.10480161 0.06775408 -0.15733585
000180 6b 91 8d 3e c1 dc 88 3d c5 f9 6d be 8a 5b 6e 3e
       0.27650008 0.066827305 -0.23239811 0.23277107
000190 a8 55 ac be 8b 64 61 3c 85 92 db 3d 74 74 b6 3e
       -0.336591 0.0137568815 0.10721306 0.35635722
0001a0 fa 94 b0 be 7b 55 92 be fc f7 e0 3d 97 47 4c 3e
       -0.3448866 -0.2858084 0.10984799 0.19949184
0001b0 b2 f1 8c 3d 37 02 f4 3d d7 aa 26 3e 75 a8 5e 3e
       0.06882037 0.11914485 0.16276108 0.21743949
0001c0 00 15 ac 3d a2 6a c1 bd 2b 72 02 be 2a 5f de bd
       0.08402443 -0.09444167 -0.12738864 -0.10857995
0001d0 02 ed 25 be 53 b8 b6 bd 53 11 c3 bd 46 4e 35 be
       -0.16203693 -0.08921876 -0.09524789 -0.1770564
0001e0 bf a0 ba bd c3 bf 9e bd 47 2e 92 bd 9c 65 5b 3d
       -0.09112691 -0.077514194 -0.07137733 0.0535637
0001f0 43 6e 04 3e 7b 32 25 3e fa 5d 04 be 3b 08 82 3e
       0.12932687 0.16132538 -0.12926474 0.25396904
000200 4c ff c3 3d 01 ac 3a be af 76 99 be fb 52 bb 3e
       0.095701784 -0.18229677 -0.2997336 0.36586747
000210 14 cf 5e 3e c0 c3 1d bb d2 70 91 be ca 55 c0 bd
       0.21758682 -0.0024072975 -0.28406388 -0.09391363
000220 62 05 75 be c3 2d 81 3d dc b4 a4 bc b6 2e 09 3c
       -0.23927835 0.063075565 -0.020105772 0.008372953
000230 51 f4 a8 3e d8 ba 0d 3e a4 e9 89 bd d6 6e f1 3d
       0.329989 0.13840806 -0.067340165 0.117887184

conv2d.0.bias f4 [16]
000000 88 80 fc 3b 96 24 c1 3b 3e 12 fb 39 1d ec b0 bb
       0.007705752 0.005894254 0.00047888042 -0.0053992406
000010 e3 d4 99 3b af f8 ad ba 9a bd aa b7 1e fd 05 ba
       0.0046945675 -0.0013272966 -2.035387e-05 -0.0005111265
000020 76 1f e9 bb 9b 92 65 3b 34 bf 08 3b e2 9d 22 bb
       -0.007114346 0.003503001 0.002086592 -0.0024813344
000030 6c d2 d4 3a 39 3a b4 37 ac 6a 65 3b 86 d3 c3 bb
       0.0016237027 2.1484784e-05 0.0035006208 -0.0059761433

conv2d.1.weight f4 [16]
000000 4f 1f b0 3e 3b 30 4d 3e 35 24 94 3e 7d 70 64 3e
       0.34398887 0.2003793 0.28933874 0.22308536
000010 69 9e 42 3e 58 ac 8a 3e ff 40 57 3e 8f 44 41 3e
       0.19005741 0.27084613 0.21020888 0.1887381
000020 9d 24 41 3e 5c 31 81 3e df de 7a 3e 9c 8d 76 3e
       0.18861623 0.2523297 0.24499081 0.24077457
000030 33 32 99 3e 8f 9f 92 3e 73 57 79 3e 16 c1 9b 3e
       0.2992111 0.2863736 0.24349765 0.3042075

conv2d.1.bias f4 [16]
000000 0d ab 11 be 55 e3 49 bd e8 92 3f be d8 de dc bd
       -0.14225407 -0.049289066 -0.18708384 -0.107846916
000010 02 fc 5d bd 2b 0c 04 bb 23 f3 26 bd 21 3c 9c bd
       -0.05419541 -0.0020148854 -0.040759217 -0.07628656
000020 52 99 96 bc a5 d9 ad bd 0d e6 c9 bd c8 cc 6d be
       -0.018383656 -0.08488778 -0.09858332 -0.23222649
000030 12 f5 35 be fb aa 39 bd d6 c0 3f be d2 72 a6 be
       -0.17769268 -0.045329075 -0.18725905 -0.32509476

conv2d.1.running_mean f4 [16]
000000 5c 01 74 3b cf fe ad 3b c7 72 83 3b 92 52 88 bb
       0.0037232256 0.0053099166 0.0040114853 -0.004160234
000010 d6 76 bf 3b 59 f9 91 bb d1 6e ac b9 09 97 f8 b8
       0.005843024 -0.0044547734 -0.0003288896 -0.00011853694
000020 d3 b4 e3 bb f4 cb 26 3b 41 7b 0b 3b 6a d5 01 bb
       -0.006949046 0.0025451155 0.0021283182 -0.0019811043
000030 27 db 6b 3b ae 1b 39 bb eb a1 6e 3b 4b d9 5b bb
       0.003598878 -0.0028245258 0.0036412429 -0.0033546265

conv2d.1.running_var f4 [16]
000000 4d d1 06 3e 56 15 47 3d ad 9d c4 3d 16 8d 52 3d
       0.1316578 0.048604332 0.09600387 0.05140408
000010 ef 0b 5c 3d 4e be 9b 3d 27 34 87 3d c1 3f 42 3d
       0.05372232 0.07604657 0.06601744 0.04742408
000020 b6 4e 7e 3d d9 95 76 3d 7a f3 81 3d d3 52 b5 3c
       0.062086783 0.0602015 0.063452676 0.02213422
000030 0d 28 81 3d a3 2b b2 3d 4b 38 c4 3c dc 9b b4 3d
       0.06306467 0.08699729 0.023952624 0.0881879

conv2d.5.weight f4 [32, 16, 3, 3]
000000 22 d0 ee bc 01 9a 6e 3c 82 dc bf bc f4 a8 8c bc
       -0.02915198 0.014563085 -0.023420576 -0.017170407
000010 89 6b 92 bb 91 1d 04 3c 47 2a ca bc 18 db 67 3e
       -0.0044683856 0.00806369 -0.024678363 0.22642171
000020 19 53 5c 3c a1 b3 67 3c 2d 01 84 3c 0a 0c bb bb
       0.013447546 0.014141948 0.016113842 -0.0057082223
000030 ac 7d 33 bc 5f f9 c9 3c 8f 13 5c 3b 57 2a b4 bd
       -0.0109552555 0.024655042 0.0033580994 -0.08797138
000040 c3 8e db bd 31 1a c3 bd b8 bc 11 bc e7 36 f5 bc
       -0.10720589 -0.0952648 -0.008895092 -0.029933406
000050 8e 1e 24 bc ab c7 20 3d ee 81 31 bc 50 14 65 bb
       -0.01001705 0.03925292 -0.0108342 -0.0034954734
000060 eb 6e c2 3c 31 13 bf 3c ee 47 83 3c 06 13 02 3c
       0.02373453 0.02332458 0.01602551 0.007939106
000070 a6 f2 a7 bb 7b 31 b2 3a ab 11 94 3d 22 50 2f bd
       -0.0051253615 0.0013595069 0.072299324 -0.04280103
000080 6a 98 d1 3d da c2 24 bc 61 0e 93 bc 33 3c 97 3d
       0.10234149 -0.010056222 -0.017951192 0.07384529
000090 d0 5b 90 bd 3c 98 87 bd f6 bd d4 b8 c4 47 80 bb
       -0.07048762 -0.06620833 -0.00010144331 -0.003914805
0000a0 db 99 9e bc 8b 0c 81 3c a7 53 ca 3c 22 15 fc bb
       -0.019360473 0.015753051 0.024698092 -0.007692949
0000b0 51 9c 17 3d 27 20 cb bc 8b 9a 17 b9 34 bc 18 bc
       0.03701431 -0.024795605 -0.00014458054 -0.009322215
0000c0 98 db 55 3c 11 af 80 3c 4b d7 c2 bc 02 21 c0 3c
       0.0130528435 0.015708478 -0.0237843 0.02345324
0000d0 a5 ba b8 3c ed dd 02 bc 01 0b 25 bd 49 c8 8e bd
       0.022549937 -0.007987482 -0.040293697 -0.06971795
0000e0 56 13 ab bd ef 56 5e ba 70 6f d4 bc 83 76 38 bd
       -0.083532974 -0.0008481582 -0.025932044 -0.045034897
0000f0 c8 13 00 3c b3 8b a7 3c 72 0c 0b 3a 2a 6f 00 3d
       0.007817216 0.020452356 0.00053042837 0.031356014
000100 02 e7 02 bd 51 4e c0 ba c3 e9 c0 39 dd 22 59 3b
       -0.031958587 -0.0014671778 0.0003679526 0.0033132352
000110 19 4b 34 bc 67 4d f0 bc 4c c6 11 bd f1 76 a3 3c
       -0.011004233 -0.029333783 -0.0355895 0.019954177
000120 50 0c b2 3b 63 a9 3c 3c 1b 3f ec bc 93 12 ba 3c
       0.0054335967 0.011514994 -0.028838685 0.022713935
000130 11 a4 1f 3c 8a 4c 49 bc 8f cf e3 bc a5 f2 d7 bc
       0.009743706 -0.012286315 -0.027808933 -0.02636082
000140 28 2c 5e bc 08 16 3d bd 8f bb 39 bd f0 87 d3 bd
       -0.013560332 -0.04616359 -0.045344885 -0.103286624
000150 87 1e 0b 3c de b9 93 3c 1d d6 07 bd 26 5b f9 3b
       0.008491165 0.018032964 -0.03316318 0.0076097427
000160 26 b3 13 3c e2 0f 61 bc 75 ed 33 3c c0 e3 94 bc
       0.00901488 -0.013736697 0.010981907 -0.018175006
000170 85 cc b0 3b bd 0f 96 3b a7 3c ed 3c 04 9d 61 3c
       0.0053954744 0.004579513 0.028959585 0.013770346
000180 cb 2c 37 bb 22 7f 40 3c 2e 16 8c bc 46 bf 69 3c
       -0.0027950283 0.011749061 -0.01710042 0.014266795
000190 97 80 22 bc 56 40 92 bc 98 70 b7 3d 51 b3 35 3c
       -0.0099183535 -0.017852943 0.089570224 0.011090116
0001a0 13 13 33 3b 06 ae e8 3c cd f5 a3 bc 9b a1 20 bc
       0.0027324602 0.028403293 -0.020014668 -0.009804155
0001b0 da 71 2d bd bd 15 b1 bd 48 22 73 bd 5d 73 78 3c
       -0.042344905 -0.086467244 -0.059358865 0.0151642235
0001c0 de fa 2d bd 1d 13 21 bd ed 73 bf 3b ce d5 30 3d
       -0.042475574 -0.03932487 0.005842677 0.04317265
0001d0 e6 44 5e 3c 13 47 7f bb 57 11 ed bc 89 c4 65 bd
       0.013566231 -0.0038952276 -0.028938932 -0.056095634
0001e0 cb e1 3a 3b cd 60 ed bc 1e 1c 43 bd 60 15 3d bc
       0.002851593 -0.028976822 -0.047634237 -0.011540741
0001f0 da 54 91 ba 42 4c 2a bd 66 04 3e bd b9 3f 11 3c
       -0.001108791 -0.04157663 -0.046390913 0.00886529
000200 bc d0 d6 bc 70 14 ef bc 5c ce ae 3c f2 db 1c bb
       -0.02622258 -0.02918455 0.021338634 -0.0023934809
000210 3e 91 2a 3c 36 7c e7 3c 94 03 6c 3c b8 03 a2 bc
       0.010410605 0.02825747 0.01440515 -0.019777164
000220 d2 c5 26 3c fe b6 02 bd 94 0e e5 3c 3a bb ea bb
       0.010179 -0.031912796 0.027961053 -0.0071634324
000230 b6 eb ea 3c 8c d7 59 ba 29 ce 29 39 0e ca 50 3d
       0.028676849 -0.0008310012 0.00016193897 0.050973944
000240 89 d5 66 bc 67 6f d6 bc 33 d9 32 bd 75 6b aa bc
       -0.014088997 -0.026176168 -0.04366417 -0.020803193
000250 a4 b3 a9 bc 3a 66 5a bd 76 d7 4f 3b fc 86 b9 bb
       -0.020715542 -0.053320147 0.0031714118 -0.0056618433
000260 6f 5c 9f bc d7 eb ba 3d 74 28 04 3c ab 43 92 3d
       -0.019453255 0.09127014 0.008066285 0.07141813
000270 9a f7 b2 bc db 34 0e bc 31 be ab bc 86 12 08 bd
       -0.021846581 -0.008679594 -0.020964714 -0.03322079
000280 39 93 32 bc 7b bc a0 bc bb fd 9f bc ba b6 32 3c
       -0.010899358 -0.019621124 -0.019530168 0.010907823
000290 d0 74 1d b8 47 8e cf bc 77 10 41 bd 43 05 ac 3b
       -3.7540507e-05 -0.025336398 -0.047134843 0.0052496507
0002a0 8a a9 a0 bd 4d 7c 59 bd 18 0e 00 bd 01 54 8a 3b
       -0.07844837 -0.053097058 -0.03126344 0.00422144
0002b0 ad 3f 87 3c 2c 51 d5 3c aa e6 65 bd a7 6d 9e bd
       0.016509855 0.026039682 -0.05612818 -0.07735758
0002c0 90 6f 94 bd a8 cb bf bd 3c 10 a0 bd 65 8e 10 bd
       -0.07247841 -0.09365016 -0.078155965 -0.035292048
0002d0 19 e4 45 3c 32 86 f3 3c c0 0e 7a 3d 60 d9 57 3d
       0.0120783085 0.029727075 0.061049223 0.05269754
0002e0 5e 5e a8 3a 6b 68 ed 3c c7 60 8a bc 14 da 7c bb
       0.0012845506 0.028980454 -0.01689185 -0.0038582133
0002f0 0b b0 d8 3b d3 e8 8f bb 75 88 48 bc fa 3a 84 ba
       0.006612783 -0.0043917685 -0.012239565 -0.0010088377
000300 43 6b bb bc 3a 88 e2 bb cc 5b 50 bc e4 98 44 3c
       -0.022878295 -0.006913212 -0.012717199 0.011999343
000310 07 ed 99 3b b9 ed fe bb 2a 51 f9 ba 51 ca 0e 3c
       0.0046974453 -0.0077798036 -0.0019021381 0.008715228
000320 dc 26 bc 3c 30 6f 04 3d de 25 ae bc b3 a1 ce 3c
       0.022967748 0.0323326 -0.02125829 0.025223589
000330 ea 61 d2 bc 96 49 0e bd 1e fb 5f bd b1 c7 11 3d
       -0.025681455 -0.034738146 -0.054682843 0.03559083
000340 53 e8 ff 3c 8a 70 d6 3c f3 67 c5 bd e8 80 93 bd
       0.03123871 0.02617671 -0.09638967 -0.07202321
000350 de 22 9a bd 61 f1 6f bd 9d df 3f bd eb a2 de bc
       -0.07526182 -0.058579806 -0.046844114 -0.027177295
000360 ec 57 14 3d 57 97 ed 3b ff 61 2a 3d a3 6e df bd
       0.03621666 0.007250707 0.041597363 -0.10909774
000370 13 33 a0 bd 8b 03 ab bd 7f 9e 33 bd 57 70 a7 bc
       -0.07822242 -0.08350285 -0.043852326 -0.02043931
000380 36 d6 8b bc 1e b1 10 bc ce d0 0c 3c 0e a2 5b 3c
       -0.017069917 -0.0088312905 0.008594705 0.013405336
000390 0c fe 87 3d f8 0a ba 3c 65 2d dd 3c 28 0a f0 bc
       0.066402525 0.022710308 0.026999185 -0.029301718
0003a0 1b d0 b9 bc da 84 41 bd f1 b2 65 3d 95 e0 c9 bc
       -0.02268224 -0.047245838 0.056078855 -0.024643222
0003b0 7e 99 87 bc 3f a0 d1 bc 51 84 42 bd 61 f5 4c bd
       -0.016552683 -0.025589107 -0.047489468 -0.0500387
0003c0 cf 37 23 bd 30 45 92 bd 25 79 19 bd 47 c8 f1 bb
       -0.039848145 -0.07142103 -0.037469048 -0.0073786112
0003d0 dd 68 d7 bc 65 af da bc 81 48 0b bd 75 de 5e bd
       -0.02629512 -0.026694963 -0.034004692 -0.05441137
0003e0 b5 37 34 bd 5a 6d 70 bd 24 cf 11 bd 84 51 24 bd
       -0.04399844 -0.058698036 -0.035597935 -0.0401168
0003f0 24 08 b6 bb d4 ee 1a 3d 8d cd 47 3c 1e 94 10 3c
       -0.0055551697 0.03782542 0.012195003 0.008824376

conv2d.5.bias f4 [32]
000000 5f 22 3d ba e5 d0 37 37 a2 06 91 b8 2b 5b 44 3a
       -0.00072148995 1.0956287e-05 -6.915374e-05 0.0007490392
000010 be fa e7 3a 59 9f 9c ba d2 07 f4 ba 09 fa a8 b9
       0.0017698628 -0.0011949345 -0.0018618053 -0.00032229748
000020 b2 e6 c7 39 87 69 85 ba d3 33 9f 3a b1 a0 26 3a
       0.0003812812 -0.0010178544 0.0012146182 0.00063563423
000030 83 7e a9 39 eb c5 0b b9 01 0c e8 3a 81 ac a6 b9
       0.0003232845 -0.00013329803 0.0017703773 -0.00031790513
000040 33 29 87 ba 56 7d 80 ba 1a 46 d1 3a ac 6c cb 3a
       -0.0010311961 -0.0009802978 0.0015966326 0.0015520058
000050 25 c0 52 ba 30 cb cb ba ca 01 4c ba 06 72 db ba
       -0.0008039496 -0.0015548225 -0.0007782249 -0.0016742356
000060 1c f9 4f 39 25 49 d7 39 fa 19 b0 ba f6 04 69 ba
       0.00019833859 0.00041062493 -0.0013435476 -0.0008888984
000070 7c 89 2e 3a ca 03 4a 39 91 27 5a ba 3c b5 e4 ba
       0.000665806 0.00019265633 -0.0008321936 -0.0017449032

conv2d.6.weight f4 [32]
000000 27 ec 0f 3e ce 5d 94 3e aa 31 5d 3e 1e ec 90 3e
       0.14054929 0.28977817 0.21600977 0.28305143
000010 f5 69 4c 3e 42 12 4e 3e c4 55 8e 3e fe 31 4f 3e
       0.19962294 0.20124152 0.2779981 0.20233914
000020 ea de 1e 3e 55 ce 4a 3e 50 5a 6a 3e 2c 6f 7a 3e
       0.15514722 0.19805272 0.22886014 0.24456471
000030 2a 43 71 3e 4e 7f 9c 3e 1c bd af 3e 01 30 83 3e
       0.23560777 0.30565876 0.34323967 0.25622562
000040 de 04 2f 3e 7d 12 03 3e d2 b2 42 3e bc 0f 2e 3e
       0.170917 0.12800021 0.19013527 0.1699819
000050 09 07 46 3e 3b 63 75 3e c0 24 81 3e 86 ed 26 3e
       0.19338621 0.23963635 0.2522335 0.16301546
000060 47 51 1f 3e 32 7a 41 3e 35 ca a1 3e 73 23 9f 3e
       0.15558349 0.1889427 0.31599584 0.31081733
000070 2c 42 17 3e 23 9d 75 3e 1a fb 6c 3e e2 24 1e 3e
       0.14771336 0.23985724 0.23142663 0.15443757

conv2d.6.bias f4 [32]
000000 24 f1 1a bd 77 c0 08 be bc d9 ec bd 9d 71 3e be
       -0.037827626 -0.1335467 -0.11564967 -0.18598028
000010 1f e8 31 be ab b1 15 be 09 e5 f6 bd af 7c 8f bd
       -0.17373703 -0.14618556 -0.12055404 -0.070062034
000020 22 d9 b4 bd ef 5f b4 bd c7 6d 22 be 53 96 c8 bd
       -0.08830477 -0.088073604 -0.15862189 -0.09794297
000030 d5 79 1b be 08 41 1d be 8b 82 1b be d9 25 f6 bd
       -0.15183194 -0.15356839 -0.15186517 -0.120189376
000040 d5 cb f9 bd 1e ef 15 be f7 f5 50 bd a0 0b f3 bd
       -0.12197081 -0.14641997 -0.05101582 -0.11867452
000050 8c 17 84 bd d3 35 fc bd a6 0e 99 bd 38 61 12 bd
       -0.06449804 -0.12314954 -0.07473497 -0.035737246
000060 62 d7 48 bd 87 5a 09 be 9f 27 15 be 23 f7 1c be
       -0.04903353 -0.1341344 -0.14565895 -0.1532865
000070 a0 41 be bd 0f 26 2f be f1 18 1d be e1 87 0e be
       -0.09289861 -0.17104362 -0.15341546 -0.13919021

conv2d.6.running_mean f4 [32]
000000 0c 12 a1 bd a2 83 4d be ae f7 22 be e3 29 80 be
       -0.0786477 -0.20069745 -0.15914795 -0.25031957
000010 ec f9 86 bd be c0 14 be f5 a9 65 be 8a 51 b4 bd
       -0.065906376 -0.1452665 -0.22428115 -0.08804615
000020 05 84 3c bd 1b 15 d9 bd 92 2b d9 bd c7 91 f9 bd
       -0.04602434 -0.10599729 -0.106040135 -0.12186008
000030 79 11 20 be d6 03 82 be f3 94 44 be 65 df 04 be
       -0.15631665 -0.25393552 -0.19197445 -0.12975843
000040 ba d5 d8 bd ec fc 28 3e 8f 14 68 bd b5 aa 8f bc
       -0.1058764 0.16502732 -0.05666023 -0.017537454
000050 98 84 1d bd 5d 2b 43 be ad ae 0d be ed 36 80 bd
       -0.03845653 -0.1905951 -0.13836165 -0.06260476
000060 58 82 f4 b9 85 8b 05 be 09 b2 60 be 58 69 86 be
       -0.0004663642 -0.13041504 -0.21942915 -0.26252246
000070 14 ea 4b 3d 11 b1 3a be eb c9 07 be 30 51 46 bd
       0.04978378 -0.18231608 -0.1326062 -0.04841727

conv2d.6.running_var f4 [32]
000000 c3 d4 a7 3c e9 84 59 3d 5a 23 06 3d 61 03 2a 3d
       0.020487195 0.05310527 0.032748558 0.04150713
000010 91 17 ae 3c f4 4b e8 3c 66 6b 40 3d 56 17 05 3d
       0.021251472 0.02835653 0.046977423 0.032492958
000020 9a cb c1 3c 68 56 cd 3c 98 94 eb 3c fe ea 2b 3d
       0.023656655 0.025065616 0.028757378 0.041972153
000030 65 61 0c 3d e0 b8 2d 3d 69 30 49 3d 10 b8 43 3d
       0.03427257 0.04241264 0.049118433 0.047782958
000040 b0 17 83 3c 7d 28 bd 3c ba c8 09 3d 7b d7 8b 3c
       0.016002506 0.023090595 0.033638693 0.017070523
000050 31 98 e6 3c d4 31 1a 3d b9 19 32 3d be 50 ac 3c
       0.028148742 0.037645176 0.043481562 0.021034595
000060 0a c3 c3 3c c6 77 da 3c 04 5c 44 3d d7 a0 4d 3d
       0.023896713 0.02666844 0.047939315 0.050202217
000070 e2 12 c0 3c e0 de 13 3d 1e a5 e5 3c 00 74 bf 3c
       0.023446504 0.036101222 0.028032836 0.023370743

conv2d.10.weight f4 [64, 32, 3, 3]
000000 e8 60 c3 3c b8 a7 bd bc cb 4a 68 3d c6 f2 fd bc
       0.02384992 -0.023151264 0.056711953 -0.030999552
000010 88 fe 1c bd 1b 2e aa 3c 5a 6d 47 bd 59 0f 21 bd
       -0.038328677 0.020773938 -0.04868827 -0.039321277
000020 05 56 51 3b 01 81 63 bd 10 92 82 bd b6 4f 2a bd
       0.003194214 -0.05554295 -0.063755155 -0.041579925
000030 d3 e2 8f 3c ec 18 85 3c 84 aa 1c 3d c4 b0 bd 3c
       0.017564213 0.016247235 0.038248554 0.023155577
000040 52 76 df 3c c4 58 b2 3c 8b c6 97 bb 8b ab 85 bc
       0.0272781 0.021770842 -0.0046318225 -0.01631715
000050 05 29 3f 3c f5 6a d3 bb 6d 34 8c ba 09 c7 4a 3c
       0.011667495 -0.0064519593 -0.0010696776 0.012376555
000060 23 3a 89 bc be 6d c2 bc 6a d4 09 bd 07 72 b1 3b
       -0.016751355 -0.02373397 -0.03364984 0.0054152044
000070 c4 6e 98 3c 4d f1 2d 3c 5a 61 bc 3b 6b fd 2b bd
       0.018607505 0.010616613 0.00574891 -0.041989725
000080 f8 b5 5c bd 87 a5 a8 bc 09 b4 a9 bc d7 78 67 bc
       -0.053884476 -0.020586742 -0.02071573 -0.014127932
000090 f8 6b 98 bc 50 50 20 3c 11 cc fb 3c d6 36 12 bd
       -0.018606171 0.009784773 0.030736955 -0.035696827
0000a0 9e 42 8c bc 58 f4 13 bc 9d 5b fa bc cb 59 4f bc
       -0.01712161 -0.009030424 -0.030561263 -0.012655686
0000b0 d8 a5 1e bd 62 c5 a2 bb 6b 74 b6 bb 2c 00 1a bc
       -0.03873238 -0.0049673775 -0.0055680773 -0.009399455
0000c0 17 ee 9c 3c cb d6 0f 3a 97 1e 84 bb 9c ea b6 bc
       0.019156499 0.0005487024 -0.004031967 -0.022328667
0000d0 59 32 7d bd 18 fe 40 bd 9d a9 ea bc 78 ba d4 bc
       -0.061815593 -0.047117323 -0.028645331 -0.025967821
0000e0 a3 af 5c 3b 58 8f fe 3b 82 dd 05 3d ac 90 c3 3c
       0.0033674024 0.0077685528 0.03268195 0.023872696
0000f0 21 ba 30 bc f9 34 b0 3c 26 cb 87 bb 07 f3 cd 3c
       -0.010786564 0.021509634 -0.00414409 0.025140299
000100 98 5b 96 3c f7 77 8f 3c 11 5d 6c 3b 9e d3 1f bc
       0.018354222 0.017513258 0.0036066214 -0.009755043
000110 6b 41 3d bd 4c 05 5a bd fe 2b 2f bc 8c 5a d2 3b
       -0.046204966 -0.053227708 -0.010691641 0.0064194854
000120 af a5 e4 bc 58 af d3 bc 5e 9f ce bb d7 6d 70 3b
       -0.027911035 -0.025840446 -0.006305619 0.0036686563
000130 c7 ff c8 3c 05 8e 78 3c 4c ea 27 bd f0 1c 8e bd
       0.024536027 0.015170579 -0.040994927 -0.06939113
000140 c1 2b 56 bd 35 2a 8a bd 92 1a f2 bc b5 de 0d bd
       -0.05228782 -0.067463316 -0.029553685 -0.034636218
000150 d1 8a 6f bb 73 ce 20 3b 41 90 ea bb ca 51 c2 bb
       -0.0036551247 0.0024537116 -0.0071583097 -0.00593016
000160 31 7a 28 bc 9b bb 04 bd 33 7b 75 bd c2 d2 ee bc
       -0.010283039 -0.032405477 -0.059931945 -0.029153232
000170 f2 25 22 3d 81 2e 16 3c 55 0e 6d bc f5 5b b8 bb
       0.03958697 0.009166361 -0.014468749 -0.0056261965
000180 39 07 18 bc 6f d1 a3 3c 55 42 60 3b 18 35 41 bc
       -0.009279066 0.019997327 0.0034219224 -0.011792444
000190 00 7b a0 bc 37 d3 64 bb c1 e3 ac 3c 70 7d 05 3d
       -0.019589901 -0.0034915933 0.021104695 0.03259033
0001a0 3f ed 01 3c 2b a3 97 3b 41 b2 2c bc 1d 74 9a bc
       0.007930099 0.0046276054 -0.010540546 -0.018854195
0001b0 a2 95 53 bd 31 cb 3e bd ab 6f f3 bc 8d f6 21 3c
       -0.051656373 -0.046580497 -0.029716333 0.009885442
0001c0 07 af f0 bb e0 90 1d 3d 26 60 30 3c ea aa d5 bc
       -0.0073450836 0.03846824 0.010765111 -0.026082475
0001d0 ec 43 fd bc 6c b4 42 bd a1 e5 90 bd f2 0d 12 bd
       -0.030916177 -0.047535345 -0.07075048 -0.03565783
0001e0 c7 d5 a6 3c 34 66 7c 3c e6 13 17 3c 0d 2e e8 3c
       0.020365609 0.0154052265 0.009221053 0.028342271
0001f0 a0 cd cc 3b a3 7b c7 3c f3 62 2f bd 55 5a 47 bd
       0.0062500983 0.024350947 -0.042818975 -0.04867013
000200 c6 30 77 bd f7 ff cf bb 79 bd e5 3c 48 cd e7 3c
       -0.06034925 -0.006347652 0.02804445 0.028296128
000210 03 e8 42 bc 49 91 a7 3c 17 68 c4 3c 0c f3 19 3d
       -0.011896136 0.02045502 0.023975415 0.037585303
000220 d7 28 5c 3c 8b 77 93 3c e7 bb a5 bc 9a fc 0c bd
       0.013437471 0.018001338 -0.0202312 -0.034420587
000230 aa 19 5a bd 7a 7d 7e bc 3c af 20 3c ef 1a e7 bc
       -0.05324713 -0.015532846 0.009807404 -0.028211085
000240 39 6f 01 3d c3 c2 6e 39 b5 1f 3a 3c bd 11 c5 bc
       0.03160021 0.00022770003 0.011360099 -0.02405631
000250 fe d4 34 bd 21 c3 68 bd 99 33 69 bc 1b fa ee bc
       -0.044148438 -0.056826714 -0.014233493 -0.029171994
000260 38 7e 6c bd 65 5e 99 bc 7b 60 f7 bc cc 88 e4 bc
       -0.05773756 -0.018721769 -0.030197373 -0.027897261
000270 b9 04 c6 bc be ce f4 3a c6 9c 62 b9 65 76 97 bd
       -0.024172174 0.0018677337 -0.00021611442 -0.07395629
000280 17 5c 53 bd bc 02 2b bd d6 7b 0c 3d f5 0b 6d 3c
       -0.051601496 -0.041750655 0.034297787 0.014468183
000290 f9 93 39 3d d8 e3 26 3a 9f dc a1 3c 19 57 30 3c
       0.045307133 0.0006366349 0.01975852 0.010762953
0002a0 d9 80 62 3b fb 0f af 3c 16 a9 b1 bb ec 10 e8 bc
       0.0034561662 0.021369925 -0.005421768 -0.028328381
0002b0 4b fc 1c bd 9a e5 89 bc 15 ae 00 ba ce b8 54 bc
       -0.038326543 -0.016833115 -0.0004908753 -0.012983514
0002c0 ef 19 1f 3c a9 89 ca bc 7d 01 27 bd d4 eb 32 bd
       0.009710773 -0.024723845 -0.040772904 -0.043681934
0002d0 b6 90 0b bd ff 8b 29 bd d2 de 99 37 7b df 69 3c
       -0.034073554 -0.041393276 1.834278e-05 0.014274473
0002e0 6e cd 5b 3c 41 70 24 ba e1 9a b5 3c 31 6c 51 bb
       0.0134156775 -0.00062728307 0.022168579 -0.0031955356
0002f0 34 c0 4f 3c 4a 75 23 3d 56 34 1a 3c 93 e6 ed 3c
       0.012680102 0.039906777 0.009411892 0.02904061
000300 52 ec 11 bd f6 77 49 bd f9 28 9e bd ee 44 ad bc
       -0.035625763 -0.04918667 -0.07722659 -0.021151032
000310 57 b3 cc bb 0b ae a7 bc 28 e8 30 3d a2 4e 4c 3c
       -0.006246965 -0.020468732 0.04319015 0.012469919
000320 5a 8b 65 3d 1d f2 cf bc d3 f6 0c bd b9 32 73 bd
       0.0560411 -0.025384003 -0.034415077 -0.059374545
000330 f9 b1 44 3c ce 51 8f 3c 0b 69 60 3c 95 16 f0 3c
       0.012005323 0.017495062 0.013696919 0.029307643
000340 6d 7c 16 3d c2 85 e2 bb ce f4 a4 b9 6a 73 1c bc
       0.036739755 -0.006912918 -0.0003146291 -0.009549001
000350 59 5e 76 bc d6 e2 43 bc 39 62 1c bc 8a 95 90 3b
       -0.015037143 -0.011955937 -0.0095449025 0.0044123577
000360 45 67 e3 bb 56 38 b7 3c 51 51 5b 3c a9 0e 29 bd
       -0.006939801 0.02236573 0.013386087 -0.041273747
000370 25 ad e4 bc a6 37 fd bc e2 27 ec bc 23 3d 48 bd
       -0.027914593 -0.030910324 -0.028827611 -0.04888643
000380 c7 86 97 bd 11 fb 48 3c 8f ee 50 3b 5b e1 ba bc
       -0.073987536 0.01226689 0.0031880473 -0.022812536
000390 13 7d 3e bb 78 fd f8 bc b9 b6 ca bc 84 d6 71 bd
       -0.002906625 -0.0303943 -0.024745332 -0.05904247
0003a0 fb 82 2e bd e2 d9 67 bd 2a b7 74 3d 71 5a 0b 3d
       -0.04260538 -0.056604274 0.05974499 0.0340218
0003b0 69 18 f4 3c 48 6b 91 bc ac ba 23 3d c7 73 3e 3d
       0.029796796 -0.017751351 0.039972946 0.046497133
0003c0 db ea 7b ba e4 ab 31 bc 42 16 ec bc 01 71 94 3c
       -0.00096098863 -0.010844205 -0.028819207 0.01812029
0003d0 57 ac 44 3d a8 76 0f 3d ea 1f 97 bc 37 1f 52 bd
       0.04801592 0.03502527 -0.018447835 -0.0512993
0003e0 07 a3 ad bd 95 30 54 bb 97 2d a9 3c 5f 26 f8 3b
       -0.084783606 -0.003237759 0.020651622 0.0075729336
0003f0 54 56 b7 bc 07 d9 29 3b 5f 03 9a bb c1 c0 44 bc
       -0.022380032 0.0025916712 -0.004700109 -0.012008847

conv2d.10.bias f4 [64]
000000 37 95 be 39 7e 02 ac ba 7b f3 c7 38 ff f7 25 3a
       0.00036350798 -0.0013123301 9.534411e-05 0.0006331205
000010 ea 58 a6 b8 54 1c 02 3a 72 5f 35 ba c9 8c 88 ba
       -7.932058e-05 0.00049633277 -0.00069188245 -0.0010417934
000020 e5 0c a1 ba 0e 52 57 ba 16 7b 49 3a 02 0d 42 b8
       -0.0012287168 -0.0008213826 0.0007685883 -4.626532e-05
000030 18 7d b2 ba 87 3c 71 3a 19 55 39 ba 96 39 21 ba
       -0.0013617603 0.00092024397 -0.00070698705 -0.00061502436
000040 5b d6 ad 3a 98 d2 f2 39 7d e2 fb b9 52 42 a3 3a
       0.0013262735 0.00046314741 -0.00048043198 0.0012455678
000050 a2 6c 94 b9 1e ff 17 ba 3e 25 90 3a 7c 85 87 ba
       -0.00028309698 -0.00057982083 0.0010997427 -0.0010339464
000060 45 16 19 ba eb 62 17 b9 ed c9 61 ba c9 bb 83 b9
       -0.0005839805 -0.00014437332 -0.0008613158 -0.00025126178
000070 4d 56 ba 39 a1 7f be b7 cd 58 d1 39 43 83 25 b8
       0.00035540984 -2.2709197e-05 0.00039929748 -3.9461313e-05
000080 68 c9 e0 39 85 35 ee 39 06 17 21 ba 95 4e 82 ba
       0.0004287467 0.00045434773 -0.00061450934 -0.0009941632
000090 22 a2 b6 39 91 25 55 3a 3e 35 dc b9 7f 5d 8c 39
       0.00034834543 0.0008130903 -0.00042001338 0.0002677254
0000a0 34 39 81 39 48 04 8e 38 02 84 23 ba cd d3 6d 3a
       0.00024647417 6.771885e-05 -0.0006237627 0.00090723933
0000b0 41 77 ab b9 0e 70 54 ba de 25 82 ba 56 0c 48 b8
       -0.00032704513 -0.00081038557 -0.0009929498 -4.7695205e-05
0000c0 1e c0 04 3a 3d ea a5 b9 b4 df 3f 39 be b6 4d b8
       0.0005064028 -0.00031645774 0.00018298515 -4.9046e-05
0000d0 f3 1b 60 ba f3 c3 af 3a a2 34 d6 b6 3b fe 6c ba
       -0.00085490866 0.0013409838 -6.3838243e-06 -0.0009040569
0000e0 30 60 51 ba 56 b8 b2 39 d1 22 a4 ba be 36 9c 3a
       -0.00079870503 0.00034088147 -0.0012522583 0.001191817
0000f0 70 66 33 ba f1 7d df 39 fb 46 45 38 5b 03 3d ba
       -0.00068435725 0.00042627708 4.7034566e-05 -0.0007210278

conv2d.11.weight f4 [64]
000000 8d 86 78 3e df 7b 4f 3e ea 38 09 3e 20 a0 22 3e
       0.24270077 0.20262097 0.13400617 0.15881395
000010 a1 20 5a 3e 83 64 25 3e 89 33 54 3e 7b 8f 7c 3e
       0.2130151 0.16151623 0.20722784 0.24664108
000020 f6 e7 60 3e b5 6f 43 3e ed 5a 5d 3e 68 fe f7 3d
       0.21963486 0.19085582 0.21616717 0.12109071
000030 c0 42 59 3e 53 e0 39 3e 0a 1e 6e 3e 18 09 21 3e
       0.2121687 0.18151979 0.23253646 0.15726125
000040 34 28 44 3e b9 b7 5e 3e 4e ff 52 3e d6 d0 68 3e
       0.19155961 0.21749772 0.20605204 0.22735915
000050 a9 5a 74 3e 11 b1 60 3e 5b ad 60 3e 96 58 40 3e
       0.23862709 0.21942545 0.2194113 0.18783793
000060 20 ba d3 3d 33 99 11 3e fa 85 60 3e c2 9e 3a 3e
       0.10338235 0.14218597 0.21926108 0.18224624
000070 a6 d8 11 3e 28 14 62 3e f4 21 59 3e dc 06 4f 3e
       0.14242801 0.22078001 0.21204358 0.2021746
000080 f3 16 68 3e ee f1 1d 3e 76 1d 0f 3e 4d 7b 3b 3e
       0.22665004 0.1542432 0.13976082 0.18308754
000090 f8 21 50 3e e7 cd 1e 3e a0 6a 41 3e 61 82 35 3e
       0.20325458 0.15508233 0.1888833 0.17725517
0000a0 8c 70 33 3e f1 82 70 3e fd f4 4e 3e 9b b4 22 3e
       0.17523402 0.2348745 0.20210643 0.15889208
0000b0 12 90 54 3e 7d 20 2a 3e 24 84 43 3e 74 23 5f 3e
       0.20758083 0.16613956 0.19093376 0.21790868
0000c0 08 7d 29 3e 1a 51 57 3e 87 c0 26 3e c6 05 d1 3d
       0.16551602 0.21027032 0.16284381 0.10206179
0000d0 e5 d1 f6 3d f3 9b 58 3e 28 0e 2b 3e a5 c8 85 3e
       0.12051753 0.2115324 0.16704619 0.26129642
0000e0 e8 0e 52 3e 1e 96 56 3e 27 fd 26 3e fd 4d 81 3e
       0.20513499 0.20955703 0.16307507 0.25254813
0000f0 0d fa 3d 3e cd 61 4b 3e 47 66 4a 3e 01 11 60 3e
       0.18552418 0.19861527 0.19765578 0.21881486

conv2d.11.bias f4 [64]
000000 be ae 93 be af 10 9c be 9a f5 65 be 9c a1 69 be
       -0.28844255 -0.3048148 -0.22456971 -0.22815555
000010 4d d8 88 be 2d b3 5f be 8c c7 77 be bf 34 8b be
       -0.26727524 -0.21845694 -0.24197215 -0.2718868
000020 f0 21 93 be 30 db 8d be 24 48 9a be b2 5f 62 be
       -0.2873683 -0.2770629 -0.30133164 -0.22106817
000030 bc e6 7e be ed f9 53 be f2 dc 9c be a6 7e 86 be
       -0.24892706 -0.20700808 -0.30637318 -0.262685
000040 13 9e 4a be 2d 4f 87 be d4 48 90 be 20 2e 8d be
       -0.19786863 -0.26427594 -0.28180563 -0.27574253
000050 63 20 7c be 12 3e 70 be 25 50 5a be 2f 08 82 be
       -0.2462173 -0.23461178 -0.21319635 -0.2539687
000060 e2 19 4e be d1 af 75 be 01 28 8e be 91 4a 4f be
       -0.20127061 -0.2399285 -0.27764896 -0.20243289
000070 71 e2 8d be d8 02 60 be a1 28 8a be a5 47 73 be
       -0.27711824 -0.21876085 -0.26984122 -0.23757799
000080 35 c4 8c be ed ac 72 be 9d 8b 7d be 02 55 63 be
       -0.27493444 -0.23698778 -0.2476029 -0.22200397
000090 66 d3 82 be 97 c6 68 be 16 63 88 be fa 45 6d be
       -0.2555191 -0.22732006 -0.26638097 -0.23171225
0000a0 5c 05 65 be ed 3c 84 be 60 6c 69 be d3 1e 47 be
       -0.22365326 -0.25827733 -0.22795248 -0.19445352
0000b0 a5 77 88 be e4 ab 6c be ab 05 75 be c2 72 8d be
       -0.26653782 -0.23112446 -0.23927943 -0.27626616
0000c0 ed 89 92 be 0a 54 62 be 00 b9 64 be be 43 35 be
       -0.28620854 -0.22102371 -0.22336197 -0.17701623
0000d0 34 5f 4d be ba 1e 6d be 4b 26 8c be ee 37 92 be
       -0.20055848 -0.23156253 -0.27372965 -0.28558296
0000e0 b3 41 80 be 11 d5 7f be 07 29 5e be 51 fa 95 be
       -0.25050125 -0.24983622 -0.21695338 -0.2929254
0000f0 71 92 77 be d5 6b 6b be c5 d7 68 be 8a 6e 8d be
       -0.24176957 -0.22990353 -0.2273856 -0.27623397

conv2d.11.running_mean f4 [64]
000000 f4 13 08 be 8b 08 21 be 63 48 97 bd 39 ef 11 be
       -0.13288862 -0.15725915 -0.073868535 -0.14251412
000010 75 0b 18 be 39 1e 64 bd 12 d6 08 be f1 ac 05 be
       -0.1484812 -0.055692885 -0.13362911 -0.13054253
000020 d7 98 6d be 98 2b 33 be 1f a5 38 be f8 97 8d 3c
       -0.23202835 -0.17497098 -0.18031739 0.017284378
000030 5f 02 57 be f8 fc 15 be ee a6 17 be e8 a9 28 be
       -0.20996998 -0.14647281 -0.14809772 -0.16471064
000040 95 0a 2d be 35 e8 5a be 03 54 56 be cd f9 36 be
       -0.16898568 -0.21377642 -0.20930485 -0.17868729
000050 81 4f 85 be 72 be 18 be d9 17 41 be 2b 2c 28 be
       -0.2603722 -0.14916399 -0.18856753 -0.16423099
000060 f5 0c 0f bd 42 84 61 bd 51 5e 28 be f3 9d 4c be
       -0.034924466 -0.05505777 -0.16442229 -0.19982128
000070 35 f0 d9 bd b4 6d 28 be cf 0a 48 be bd ef 14 be
       -0.10641519 -0.16448098 -0.19535373 -0.14544578
000080 76 0f 33 be d0 e0 33 be c6 f8 bf bd 8c e5 3b be
       -0.17486367 -0.17566228 -0.09373622 -0.18349284
000090 d4 1a fa bd f6 dc f2 bd d9 18 41 be 50 14 49 be
       -0.12212148 -0.11858551 -0.18857135 -0.19636655
0000a0 83 4a 16 be a4 2e 69 be 76 79 1c be e0 9b 2d be
       -0.14676861 -0.22771698 -0.15280709 -0.16953993
0000b0 f6 0a 28 be 22 45 ed bd 00 1b 25 be 52 58 0e be
       -0.16410431 -0.11585452 -0.16123581 -0.13900879
0000c0 02 81 2f be 9e cf 1f be 1b ad 06 be 2a 84 f3 bc
       -0.17139056 -0.15606543 -0.13151972 -0.029726107
0000d0 b2 1f 39 be e1 e4 11 be a7 4c 36 be 9e ab 61 be
       -0.18078497 -0.14247467 -0.17802678 -0.22038123
0000e0 f6 54 7b be ed 75 53 be bb 69 11 be c9 3b 45 be
       -0.24544129 -0.20650454 -0.14200489 -0.19261087
0000f0 40 c9 01 be 5f 87 16 be bc 7a 02 be ae 82 1c be
       -0.12674427 -0.14700077 -0.12742132 -0.15284225

conv2d.11.running_var f4 [64]
000000 6a 4a 9b 3c 7e c8 8d 3c d1 4b 1b 3c 50 07 4d 3c
       0.018956382 0.017307516 0.009478525 0.0125139505
000010 f5 0a 76 3c 49 ac 54 3c 10 cc 8e 3c 5e 4b 9b 3c
       0.015017261 0.012980529 0.017431289 0.018956836
000020 7d 69 85 3c 68 9e 45 3c 9a 6e a0 3c 00 a0 12 3c
       0.016285652 0.012061693 0.019583989 0.00894928
000030 8c 2a a1 3c 1a 7f 4a 3c 8a 36 5c 3c ec 5e 51 3c
       0.019673608 0.012359405 0.0134407375 0.012778979
000040 10 12 95 3c 36 7f a5 3c 57 ad 53 3c 12 17 7c 3c
       0.01819709 0.02020226 0.012919745 0.01538636
000050 83 74 8c 3c 16 fb 8a 3c ec 29 85 3c 0e 65 59 3c
       0.0171454 0.01696543 0.016255341 0.013268722
000060 7a 30 ac 3b d4 16 14 3c 18 86 82 3c 8f be 4a 3c
       0.0052548023 0.009038646 0.015933082 0.012374534
000070 06 eb 0b 3c 15 bd 90 3c a5 10 6b 3c ff 88 68 3c
       0.008539921 0.017668286 0.01434723 0.014192819
000080 64 44 98 3c 55 dd 47 3c c4 ad f9 3b 5e 66 6c 3c
       0.018587299 0.012198766 0.0076195914 0.014428703
000090 0f 06 85 3c 97 57 4f 3c 29 d9 77 3c a7 37 83 3c
       0.01623824 0.01265516 0.015127459 0.016017748
0000a0 8f bd 7e 3c 6f 13 a8 3c c0 ad 83 3c 90 ca 1c 3c
       0.015548124 0.02051708 0.016074061 0.009569779
0000b0 08 e1 62 3c f4 82 6a 3c e4 a6 32 3c 34 ee a8 3c
       0.013847597 0.014313448 0.010904048 0.020621397
0000c0 a0 e7 35 3c da 48 67 3c 25 4a fc 3b 5e 47 01 3c
       0.011102587 0.01411649 0.0076992684 0.00789055
0000d0 8c c8 07 3c b3 35 99 3c a3 ab 55 3c 6b 0e b4 3c
       0.00828756 0.018702364 0.01304141 0.021979531
0000e0 8c 62 61 3c 7c ca 81 3c 7b 4b 35 3c 1b d1 8f 3c
       0.013756406 0.015843622 0.011065359 0.017555764
0000f0 79 64 82 3c 8d 22 68 3c d2 cf 3c 3c 63 e3 a3 3c
       0.01591705 0.014168394 0.011524158 0.020005887

conv2d.15.weight f4 [64, 64, 3, 3]
000000 07 b0 c0 3d 63 1b dc 3c 3c d9 02 bc 9a fd 15 3d
       0.094085746 0.026868528 -0.007986363 0.036618806
000010 39 a0 15 bc a7 c0 04 bd 5e 5e d1 3c 00 ba c1 3a
       -0.009132438 -0.03241029 0.025557693 0.0014780164
000020 5c ea 88 3c 8d 0f e0 bb a0 5d 7a 3b 6c 0b 30 3c
       0.016713314 -0.0068377913 0.0038202778 0.010744911
000030 67 6e 6b 3c 36 c6 91 bc 4c bf f8 3b b0 1b 19 3c
       0.014369584 -0.01779471 0.0075911637 0.00934498
000040 b6 0d 9d 3d 96 30 e1 3c ab a3 74 bc 82 36 69 ba
       0.07668631 0.027488988 -0.0149316 -0.0008896367
000050 64 81 cc 3c c3 96 ae bc d8 a4 dc 3c b4 7a bd bb
       0.024964042 -0.021312123 0.026934072 -0.0057824496
000060 a3 90 87 3c 1d 40 6a 3b 05 65 8e 3b 93 c3 30 3d
       0.01654846 0.003574378 0.0043455386 0.043155264
000070 fa c0 97 3b 2e e2 1c 3d 79 f5 2d 3c ba 07 04 bd
       0.004631159 0.03830164 0.010617607 -0.03223393
000080 24 d0 53 bd 7b 0a 00 3d 95 4f eb 3c 79 b9 16 3c
       -0.05171217 0.031259995 0.028724471 0.009199494
000090 85 a8 8c 3c f0 64 0d 3c 47 5b be 3c 22 7c a6 3b
       0.0171702 0.008630022 0.023236884 0.0050807158
0000a0 c9 82 a4 3b 7a 7a 21 bc 1a 8d 40 3c f0 8f ce 3c
       0.0050204736 -0.009855861 0.011752391 0.02521512
0000b0 58 5b 23 bd 77 f7 11 bc 8b 10 13 bc 39 5a 8a bb
       -0.039882034 -0.008909098 -0.008976112 -0.004222181
0000c0 b3 b8 72 ba 13 f9 e5 3c 07 f3 cf bc bd aa f2 bc
       -0.000925909 0.02807287 -0.02538444 -0.02962243
0000d0 fa 96 1a 3d 67 31 75 bb 88 b4 80 bb e2 d8 0d 3d
       0.03774164 -0.003741348 -0.003927771 0.034630664
0000e0 dd 43 12 3d 03 99 36 3c 45 5c a9 3c 0b 4b 9a bc
       0.03570925 0.011144879 0.02067388 -0.018834611
0000f0 bc 22 a1 bc bd 07 46 bd 7c e3 d1 bc b1 f1 5b bb
       -0.019669883 -0.048347224 -0.025621168 -0.0033560807
000100 51 3a 16 bb 78 62 15 3d 2f 1d 87 bc 7e c7 04 bb
       -0.0022922943 0.03647086 -0.016493408 -0.0020260508
000110 c9 ee 60 bc 31 32 1a bd 7f 44 55 bd 47 12 32 bd
       -0.013728806 -0.037645523 -0.052067276 -0.043474462
000120 88 8e 11 3d ea 26 e9 bc 94 65 bd bb 30 73 d1 3a
       0.03553632 -0.028460938 -0.0057799313 0.0015979763
000130 ba ab b4 bc d4 7d 19 3d 6f 08 8e 3b e3 51 14 bd
       -0.022054542 0.037473515 0.0043345015 -0.036210906
000140 bf 3f 18 3c 78 b7 a7 3b a0 b6 90 bc da 8f 48 bc
       0.009292542 0.0051183067 -0.017665207 -0.012241328
000150 65 93 66 3c d0 51 f3 bb 11 4f 3c 3b c1 7a a0 3b
       0.0140732275 -0.0074255243 0.002873365 0.004897446
000160 eb 0c 0b 3c b7 6c 97 bc 2f 27 06 3d 1b 57 c7 bc
       0.008486967 -0.018484456 0.032752212 -0.024333527
000170 fc a3 77 3d d2 51 00 3c 29 20 d5 bc 82 d7 71 3b
       0.060459122 0.0078320075 -0.026016312 0.0036902134
000180 5f e5 6b 3d ae 7f b8 3d 9d 90 3f 3d 93 e2 0a bc
       0.057591792 0.09008728 0.046768773 -0.008476871
000190 c5 2b 9a bc 76 d4 20 bd dd d0 1d bc 46 af 08 bc
       -0.018819699 -0.03926512 -0.009632316 -0.00834257
0001a0 1d 17 de ba 2e 4c b0 3b fd ee 1f bb 58 00 08 3c
       -0.0016944144 0.005380175 -0.0024403923 0.008300863
0001b0 22 59 86 bc e3 3a de ba 5b 7d 39 3b f6 93 02 3d
       -0.016399924 -0.0016954805 0.0028303477 0.031879388
0001c0 db 92 64 bc 62 31 1c 3c 35 94 cc 39 a7 bc e5 3c
       -0.013951029 0.009533258 0.00039020335 0.028044058
0001d0 fd 54 78 3c 90 cd c6 3b 40 a7 8b 3b 1a 3c 83 3c
       0.015156982 0.0060669854 0.004261881 0.01601987
0001e0 15 f6 76 3c 0c 2a 71 3c 95 f8 03 bb 80 f6 e5 3b
       0.015073319 0.014719497 -0.002013718 0.0070179105
0001f0 11 42 19 3d 75 ad 9a ba ac 0f b3 bb 4a 89 b3 bc
       0.03741652 -0.0011800962 -0.0054645147 -0.02191605
000200 c7 be 97 bc d4 f8 c2 bc 9f 66 9f 3c 28 7e 4a bd
       -0.018523587 -0.023800291 0.019458113 -0.04943672
000210 f0 5c 88 3c f1 8b 8b 3b 42 53 77 bd a3 09 36 3c
       0.016645879 0.0042586257 -0.060382135 0.011110696
000220 b0 0e 75 bc ef 65 0a 3d ee d6 8c 3c f7 f2 c1 3a
       -0.014957115 0.033788618 0.01719233 0.0014797141
000230 41 77 f6 3c 06 6b 2e bd 7b c1 98 bb 28 93 01 bb
       0.030086162 -0.042582534 -0.0046617365 -0.001977155
000240 be a1 3e 3d 41 91 7c 3c b4 2e 08 3d b8 bf 29 3d
       0.046540968 0.015415491 0.033247665 0.041442603
000250 35 94 8e 3c 33 74 25 bc 8b ca 99 3b d6 b8 62 3c
       0.017404655 -0.010098505 0.0046933345 0.013838014
000260 f2 9b d7 ba 76 f0 ae bb bf e9 2d bd 26 e7 ee bc
       -0.0016449674 -0.005338724 -0.042459246 -0.029162955
000270 f4 62 ed 3c 3c f0 70 3d 62 27 06 3d f4 ff 78 3d
       0.028977849 0.058822855 0.032752402 0.06079097
000280 32 22 9a 3d ae 81 1a 3c 08 ca a3 bc b8 98 83 3c
       0.075260535 0.009430332 -0.019993797 0.016064033
000290 b3 cf eb bb 02 28 c0 bc ce fe ef bc 2a ad 92 bc
       -0.0071963905 -0.023456577 -0.029296305 -0.017904837
0002a0 36 46 18 3c 1e d4 6d bc 75 a8 4b bc 19 bc 4d bc
       0.009294083 -0.014515905 -0.0124303 -0.012557053
0002b0 0c 6a 6f 3c 5e 9f 39 3c 30 19 b6 bc a1 0c 7c bc
       0.014612686 0.0113295 -0.022228807 -0.01538387
0002c0 3e aa 77 bb 67 1d 0d 3c f2 05 dd bc 15 41 d0 3c
       -0.0037790681 0.008612967 -0.026980374 0.025421659
0002d0 a6 31 15 bd 9c 34 91 bc 73 bb b7 bc 65 a7 bf ba
       -0.0364243 -0.017725281 -0.02242825 -0.0014622031
0002e0 19 b8 d9 3c 74 36 d9 3c 37 77 2a 3c 3f c9 30 bb
       0.026577042 0.026515223 0.0104044 -0.002697542
0002f0 d8 48 f1 bb 12 4f 4d 3c 37 7e cf 3b 6e c3 d7 3b
       -0.00736342 0.012531059 0.0063321847 0.0065845763
000300 a5 e1 84 bc 37 bb 37 bc af dd aa bc 57 a4 c4 bc
       -0.016220877 -0.011214069 -0.02085766 -0.024004145
000310 bc 7f 90 bd 62 b5 de bc 07 eb 71 bc ca fc e1 bc
       -0.070556134 -0.0271861 -0.014765508 -0.02758636
000320 d1 2e 8d 3b 21 37 bf bc 9f 2d 8e bc 84 15 b6 3c
       0.0043085595 -0.023341717 -0.017355738 0.022227056
000330 9a 49 40 bc 70 96 0b bd 15 d7 f2 bc b2 03 3d bc
       -0.011736298 -0.034079015 -0.029643575 -0.011536526
000340 07 fc b6 3c 1a 89 9d 3c 10 2d 59 bc 94 41 2f bc
       0.022336973 0.019230414 -0.013255373 -0.010696787
000350 fb fb 8e bc 95 8b a0 bc 19 d8 09 bd c7 13 38 bd
       -0.017454138 -0.019597808 -0.033653352 -0.044940736
000360 56 7a 31 bb c5 64 c2 bc 80 ce c5 bc 22 98 16 3b
       -0.0027080975 -0.023729691 -0.024146318 0.0022978862
000370 40 ec 7c 3b f8 89 c3 3c 8a 77 4a 3c 7a 92 9b 3c
       0.0038592964 0.0238695 0.012357602 0.018990744
000380 b7 fa cf 3b f1 28 9a 3a a5 5b 1a bc 7a c3 f8 ba
       0.006347026 0.0011761469 -0.009421264 -0.0018979155
000390 78 7c ef 3b 00 40 9b bc 86 36 a3 ba b0 b6 e0 bc
       0.007308539 -0.018951416 -0.0012452162 -0.027430862
0003a0 68 3a f7 bb 21 1a 32 bd e6 50 91 3c a7 6b d0 3a
       -0.0075448044 -0.04348195 0.01773877 0.0015901224
0003b0 6d d1 38 3d 47 09 56 bc 28 02 fb bc 22 8c b4 bb
       0.0451216 -0.013063735 -0.030640677 -0.005509869
0003c0 cf 56 e2 bc 24 d7 08 bc 8c a7 1a bc c9 79 ab bc
       -0.027629284 -0.008352075 -0.00943936 -0.020932095
0003d0 30 64 9a bc b9 31 04 3b 95 cd 3e bc ae f3 f0 bc
       -0.018846601 0.0020171239 -0.011645694 -0.02941307
0003e0 e7 82 a3 3b aa 97 a0 bb 8a 41 42 3c 13 ee 8c bc
       0.00498997 -0.0049008923 0.011856446 -0.017203366
0003f0 a8 e5 c9 3b 9e 8f 9c b9 65 4c 1e 3b f0 80 07 3d
       0.0061614104 -0.00029861642 0.0024154421 0.03308195

conv2d.15.bias f4 [64]
000000 3d c8 8d 38 1d fc 78 3a 27 f5 4c 39 78 11 3c ba
       6.760701e-05 0.0009498017 0.00019546282 -0.0007174234
000010 ed 90 1e ba c3 19 38 ba b7 d7 02 38 01 68 f3 39
       -0.00060488173 -0.0007022882 3.1195315e-05 0.0004642606
000020 a5 7a 1b 3a d1 c2 1e b9 a3 31 fc b9 a7 81 5b 3a
       0.0005931056 -0.00015140629 -0.00048102168 0.0008373507
000030 06 82 6e 3a d2 7d 41 39 b7 77 92 39 e4 fb a4 39
       0.00090983545 0.00018452786 0.00027936485 0.0003146819
000040 74 c6 07 3a ce fd 7b ba f1 c1 40 ba 46 5d f7 39
       0.0005179413 -0.000961271 -0.0007353118 0.00047181005
000050 bf 3b 33 ba 7c df 79 ba 4d a7 5b ba de 79 d0 39
       -0.0006837211 -0.0009531898 -0.0008379117 0.0003976365
000060 e7 0c 5e 3a 96 67 6c 39 50 e6 53 ba aa d5 13 3a
       0.00084705505 0.00022545303 -0.00080833305 0.00056394434
000070 74 87 ef 39 df 03 17 ba 5b d5 26 ba af f3 ee b9
       0.00045686553 -0.000576077 -0.000636419 -0.00045576456
000080 e3 1c 62 3a 01 f0 50 3a f1 46 9f 39 0e c3 5a 39
       0.000862552 0.00079703337 0.000303797 0.00020862764
000090 39 af a9 39 2e d9 f1 b9 55 d8 86 39 b9 6a 5e ba
       0.00032364743 -0.00046128914 0.00025719652 -0.0008484531
0000a0 e5 1b 4b ba c0 88 ab b9 9a 0a 53 ba c0 ce ba b9
       -0.0007747992 -0.00032717548 -0.0008050591 -0.00035630725
0000b0 14 36 c1 39 d0 3e 57 3a f4 0d 65 ba 98 fc 5d 39
       0.0003685212 0.0008210959 -0.0008737736 0.00021170301
0000c0 15 fa fb 38 cb b0 24 ba 6a ab 6c ba 12 f3 4c 3a
       0.00012015194 -0.0006282448 -0.0009028228 0.0007818203
0000d0 2d 59 1f 3a 50 8b 3e 3a da 63 5f ba 0f d8 01 b9
       0.0006078657 0.0007268684 -0.0008521654 -0.00012382887
0000e0 0c 0f 77 3a 65 ed 6f 3a c2 6b 86 39 7b ee 6b 3a
       0.00094245444 0.0009152501 0.00025638758 0.0009000075
0000f0 14 16 3f b9 58 f4 6c ba 62 09 66 ba 3e d0 0d ba
       -0.00018223404 -0.00090390956 -0.0008775202 -0.00054097536

conv2d.16.weight f4 [64]
000000 35 75 54 3f 0e 5a 48 3f f2 b1 45 3f df 85 44 3f
       0.82991344 0.7826241 0.7722465 0.7676677
000010 b5 e1 40 3f 9a 0f 48 3f 63 72 4a 3f 6a 49 40 3f
       0.753444 0.78148806 0.7908079 0.7511202
000020 10 95 56 3f 9b 65 47 3f 83 b5 43 3f e7 22 3d 3f
       0.838212 0.7788941 0.7644884 0.7388138
000030 75 1f 46 3f 38 2b 41 3f c6 40 52 3f ef 46 47 3f
       0.7739175 0.7545657 0.82130086 0.7784261
000040 1e 35 46 3f 7c 1c 4d 3f 25 9b 3d 3f 70 b5 56 3f
       0.774248 0.8012159 0.74064857 0.838706
000050 ee 56 4a 3f 67 4d 47 3f c7 89 4d 3f 45 b5 4e 3f
       0.79038894 0.7785248 0.80288357 0.80745345
000060 8a a6 45 3f a7 01 4a 3f 39 bc 45 3f 84 0d 37 3f
       0.77207243 0.7890877 0.7724033 0.71505
000070 be 0e 47 3f b0 fb 3e 3f e9 d0 4d 3f d2 ce 4b 3f
       0.7775687 0.74602795 0.80396897 0.7961246
000080 22 67 41 3f 9c c3 49 3f 62 24 47 3f 45 c5 55 3f
       0.75547993 0.788141 0.7778989 0.83504134
000090 67 bb 42 3f 49 b5 41 3f 6a 0d 4b 3f 1b b5 3f 3f
       0.76067203 0.75667244 0.79317343 0.7488572
0000a0 97 8d 4f 3f 63 86 4d 3f ed 95 49 3f de 9d 3d 3f
       0.81075424 0.8028318 0.78744394 0.7406901
0000b0 88 47 44 3f 38 17 40 3f 75 36 3b 3f 10 c2 3e 3f
       0.7667165 0.7503543 0.7312997 0.74514866
0000c0 4a 65 4c 3f 34 74 46 3f 36 8c 49 3f cc 67 48 3f
       0.79842055 0.7752106 0.7872957 0.7828338
0000d0 d6 b9 3c 3f 5d 87 48 3f 8f 02 45 3f 38 d3 48 3f
       0.73721063 0.7833155 0.7695703 0.78447294
0000e0 33 9f 4e 3f 47 fb 40 3f 0b fc 4a 3f 64 16 47 3f
       0.8071167 0.7538342 0.7929084 0.7776854
0000f0 ea 20 48 3f 0d a9 42 3f 50 1b 40 3f 36 d6 4c 3f
       0.7817522 0.760392 0.75041676 0.8001436

conv2d.16.bias f4 [64]
000000 a7 08 6a be 3d 39 26 be d8 65 6d be 75 ae 24 be
       -0.22854863 -0.16232772 -0.23183382 -0.16082175
000010 2d 3f 46 be 19 51 4b be 5f 24 38 be 78 ed 1d be
       -0.19360037 -0.19855155 -0.17982624 -0.15422618
000020 7c 3f f9 bd ea 6e 2f be 5c 07 38 be 7b c1 66 be
       -0.12170312 -0.17132154 -0.17971557 -0.22534744
000030 2c d3 4d be 8a 3e e7 bd 56 fc 31 be 77 1f 61 be
       -0.20100087 -0.11291225 -0.17381415 -0.21984659
000040 d8 00 be bd 0f c8 1c be 79 a8 50 be bd e1 82 be
       -0.09277505 -0.15310691 -0.20376767 -0.2556285
000050 dc 22 6b be 7f a1 43 be 81 f3 43 be da 27 40 be
       -0.22962517 -0.19104575 -0.19135858 -0.18765202
000060 1f 35 60 be 59 11 7d be 57 80 0e be 8a 80 5a be
       -0.21895264 -0.24713649 -0.13916145 -0.21338096
000070 9f 5d 65 be 8c 0e 79 be 0b 86 55 be eb 42 67 be
       -0.22398995 -0.24321955 -0.20851915 -0.22584121
000080 b0 a2 3a be f7 20 66 be d9 33 35 be 3a bd 80 be
       -0.18226123 -0.22473513 -0.1769556 -0.25144368
000090 d3 cd 51 be aa 23 c3 bd 1a 02 6a be bb 0e 36 be
       -0.20488672 -0.09528287 -0.22852364 -0.17779057
0000a0 d4 80 8d be e6 7a 38 be 8d a6 89 be aa 25 41 be
       -0.2763735 -0.18015632 -0.2688488 -0.18862024
0000b0 8b f8 4e be a7 0b 40 be 2b 71 7f be 4c 38 6e be
       -0.20211999 -0.18754445 -0.24945514 -0.23263663
0000c0 e0 d4 20 be 8b 49 80 be c3 f5 42 be 1c 50 4b be
       -0.15706205 -0.2505611 -0.19039063 -0.19854778
0000d0 99 75 76 be cc c0 72 be 14 4d 3b be 1c 26 cd bd
       -0.24068297 -0.23706359 -0.18291122 -0.100170344
0000e0 44 19 4a be 56 4e 55 be 92 62 5e be 22 0a 4f be
       -0.197362 -0.20830664 -0.21717289 -0.20218709
0000f0 d3 1a 0f be bc f0 54 be 16 2c 37 be c6 59 8d be
       -0.13975076 -0.20794958 -0.17887911 -0.27607554

conv2d.16.running_mean f4 [64]
000000 88 a9 d4 3b 49 b2 88 3c c6 e2 b8 bc cc 4a 8d bc
       0.0064899363 0.016686575 -0.022569072 -0.01724758
000010 12 97 87 bc e6 a7 d8 bb e6 74 23 3c ae 5c 1b bc
       -0.016551528 -0.006611812 0.009976601 -0.009482546
000020 a1 d2 1b 3c 89 ef 93 bc 44 0e 3e bc 05 8f 4b 3c
       0.009510667 -0.018058555 -0.011600081 0.012424235
000030 7a 6a fa 39 63 ee 8e bc b2 60 5d bc e4 48 8c 3c
       0.00047763047 -0.017447656 -0.0135118235 0.0171246
000040 1e d3 0d bc 25 4d 41 bc 45 76 b6 bb 7f 0e a0 3c
       -0.008656291 -0.011798178 -0.005568298 0.019538162
000050 ef aa 6f 3c b7 00 b2 3b 9f ec c0 b9 44 39 07 bc
       0.014628156 0.005432214 -0.0003679739 -0.008253399
000060 2b d4 cc bb 7c 3c 92 bc 03 75 de bc a0 03 07 bc
       -0.0062508783 -0.017851107 -0.027155405 -0.00824061
000070 a4 d7 e5 ba 3a c5 08 bc d0 09 c8 3a f1 78 e3 3b
       -0.0017535579 -0.008347804 0.0015261713 0.0069419076
000080 c1 ad 59 3c ac 76 fc 3b 29 3e 94 ba 5a 5b 8d 3b
       0.013286055 0.0077045765 -0.0011310029 0.0043138685
000090 1a 00 95 3b 7a d7 e4 bc 2a d3 94 3b f4 06 05 bb
       0.0045471312 -0.027934778 0.0045417743 -0.0020298334
0000a0 8c 6d 98 3c 43 ac da bb 63 96 f7 ba 2b f1 c2 bc
       0.018606924 -0.006673367 -0.0018889423 -0.023796638
0000b0 43 16 8e bc 5f 81 25 bb ee 89 2f b8 bb 5e 96 bb
       -0.0173446 -0.0025254113 -4.185171e-05 -0.0045889295
0000c0 ce 14 58 bb 22 a5 78 3b c8 41 2b bc 3d 49 da b9
       -0.0032971385 0.0037940224 -0.010452695 -0.00041634767
0000d0 b1 f4 2c 3b 24 5a e4 3c 42 31 e5 bc e7 66 19 bc
       0.0026390965 0.027875014 -0.02797759 -0.009362913
0000e0 b0 72 5c 3c b5 bc 4f 3c 2a b5 ae 3c ee c4 97 3b
       0.013455078 0.012679269 0.02132662 0.00463163
0000f0 39 c8 ca 3a a2 a9 b7 ba 39 a0 48 bb 6d ad 0e 3c
       0.0015471048 -0.0014012347 -0.0030613078 0.00870834

conv2d.16.running_var f4 [64]
000000 49 37 25 3b 74 05 14 3b cc 68 19 3b cc 78 fc 3a
       0.0025209954 0.0022586258 0.002340841 0.0019262074
000010 a9 d5 f2 3a bb 1c 11 3b 3f b3 15 3b 23 03 02 3b
       0.001852681 0.0022142369 0.0022842435 0.0019838295
000020 9b 7a 0c 3b 63 b5 08 3b 18 ca 06 3b e3 60 fe 3a
       0.0021435383 0.0020860068 0.0020567235 0.0019407537
000030 8d fa 0b 3b 32 2b f8 3a 6b 3c 0e 3b f9 1d fd 3a
       0.0021359057 0.0018933772 0.0021703492 0.0019311301
000040 d1 05 0a 3b c9 1d 16 3b 0c f8 f9 3a 2a 2a 14 3b
       0.0021060596 0.0022905937 0.0019071116 0.002260814
000050 09 4e 0c 3b ca 1f f7 3a bc 89 17 3b 2d 5c 16 3b
       0.0021408817 0.0018854078 0.0023122868 0.0022943125
000060 5b f2 04 3b 58 c5 13 3b 5b 47 00 3b b4 9e f4 3a
       0.0020286057 0.0022548046 0.0019573781 0.001866302
000070 00 ce 17 3b 86 94 fe 3a b6 8b 10 3b 4f 99 2a 3b
       0.0023163557 0.0019422926 0.002205593 0.002603132
000080 15 6c 03 3b 5a 72 0f 3b 1e 03 06 3b 77 ae 22 3b
       0.0020053436 0.0021888227 0.0020448635 0.0024823227
000090 81 81 08 3b e0 7d 00 3b 74 a4 11 3b 6b 21 06 3b
       0.0020829143 0.0019606277 0.0022223266 0.0020466696
0000a0 55 e3 26 3b 1c 00 15 3b da 1c 0d 3b 08 4b 07 3b
       0.002546509 0.002273566 0.002153209 0.0020644087
0000b0 26 a7 0d 3b d3 ff fc 3a 2d b0 03 3b 38 bb 04 3b
       0.002161452 0.0019302316 0.0020094023 0.0020253193
0000c0 cb 23 22 3b 3a a8 08 3b e5 3f 05 3b a5 2d 0d 3b
       0.0024740573 0.0020852224 0.0020332274 0.00215421
0000d0 17 7d f1 3a c7 b0 11 3b 73 7b 0e 3b 4f 48 03 3b
       0.001842412 0.0022230612 0.0021741062 0.0020032113
0000e0 49 5d 20 3b 42 95 0d 3b 3c 5f 0b 3b b6 e9 16 3b
       0.0024469665 0.0021603857 0.002126648 0.0023027486
0000f0 0c 57 12 3b 32 68 10 3b d4 e2 09 3b 9b c3 21 3b
       0.0022329716 0.0022034761 0.002103974 0.002468324
