model/model2_6.pt (torch, 922247 bytes, 25 tensors)

conv2d.0.weight f4 [8, 1, 3, 3]
000000 15 34 98 3e b4 8b a1 3e 90 0e 7a 3e ed a7 9b 3e
       0.29727235 0.31551898 0.24419618 0.30401555
000010 ec a3 94 3e c9 68 8e 3e 8b 11 80 3e 70 88 2e 3e
       0.29031312 0.2781432 0.25013384 0.17044234
000020 19 dd 75 3e d4 6d a1 bc 58 d0 df bd b1 85 37 be
       0.24010123 -0.01970569 -0.1092841 -0.17922093
000030 a1 b6 0e bd 20 65 86 be 5d 37 e2 bd 44 ed ac bd
       -0.034842137 -0.26249027 -0.11045716 -0.08443692
000040 ad 40 ab be 79 72 47 be 42 38 bf 3e be 55 bc 3e
       -0.3344778 -0.19477262 0.3734761 0.36784166
000050 0f c6 9c 3e a5 57 be 3e 04 ea a3 3e 94 43 b3 3e
       0.30619857 0.37176242 0.32014477 0.35012496
000060 91 77 99 3e 18 45 7f 3e d5 29 a1 3e b8 60 8b ba
       0.29974034 0.24928701 0.31477228 -0.0010633683
000070 e3 c3 7c be 1f bc d4 3e 10 b1 74 bd d4 18 76 be
       -0.246841 0.41549775 -0.059739172 -0.24032909
000080 79 9c b9 3e cd 66 8b bc 3a 23 72 be 7a 2d df 3e
       0.36252192 -0.017016793 -0.2364625 0.43589383
000090 85 ef 6b 3e 42 2f a3 3c b7 f5 59 be cf 4a 79 3e
       0.23040588 0.019919995 -0.21285139 0.24344943
0000a0 f6 3e 90 3b 5d f0 77 be 0d e9 63 3e 47 ef 45 bd
       0.004402037 -0.24212785 0.2225687 -0.048323896
0000b0 91 ee 60 be 21 e1 01 3f ce 1f e3 3e f4 df bd 3e
       -0.21966006 0.50734144 0.44360203 0.37084925
0000c0 39 96 00 3f 82 74 cc 3e 91 9a f5 3e 6b 54 f3 3e
       0.5022922 0.39932638 0.47969487 0.47525343
0000d0 37 b6 b1 3e a7 2a fe 3e 17 d8 1c be e1 37 e1 3e
       0.3470933 0.49641916 -0.15316807 0.43987945
0000e0 58 dc 2e be 19 45 2e be 51 12 d4 3e b2 21 1a be
       -0.17076242 -0.17018546 0.41420224 -0.15051916
0000f0 0c f6 18 be da c6 04 3f 89 c1 ca bc 45 49 a3 3e
       -0.1493761 0.51865923 -0.024750488 0.31891838
000100 28 75 a1 3e 76 0a 85 3e 37 11 a2 3e 1e 3a 95 3e
       0.31534696 0.25984544 0.3165376 0.29145902
000110 60 bc 9b 3e 44 0d 8e 3e 3b e0 5a 3e 39 01 8b 3e
       0.30417156 0.27744496 0.213746 0.2714937

conv2d.0.bias f4 [8]
000000 50 47 88 be 43 bd 47 3e 40 1f 86 be e1 fe b6 3d
       -0.26616907 0.19505791 -0.26195717 0.08935333
000010 94 19 a6 3d 32 73 75 be 2e cc b0 3d 07 c2 96 be
       0.081103474 -0.23969725 0.08632694 -0.29444906

conv2d.4.conv1.weight f4 [8, 8, 3, 3]
000000 eb 66 8b 3d 67 89 d2 3d f6 3b 7f 3c 67 85 9a 3d
       0.068067394 0.10280114 0.015578261 0.07544976
000010 ed 25 91 3d cb 77 33 3d be 6e 53 3e 28 f6 37 3e
       0.07087312 0.043815415 0.20647714 0.17964995
000020 8f 2b c9 3d f8 26 ec bc dd 01 b7 bd 59 28 74 bd
       0.09822761 -0.028827175 -0.08935902 -0.05960879
000030 17 93 66 bd 4d 5d 24 be 83 ad 29 be 23 e2 99 bd
       -0.05629262 -0.16051216 -0.16570096 -0.07513835
000040 2f 34 23 be ba da 1f be 81 c9 0f 3d 9f a0 26 3e
       -0.15937875 -0.15610781 0.03510428 0.1627221
000050 23 17 42 bb 8e 6e 1a 3e 15 55 ea 3d ff cb 62 3d
       -0.0029615841 0.15081236 0.11442009 0.055370327
000060 2c 24 5f 3e 95 e9 69 3e 1d fe b9 3d 0b 7d c6 3d
       0.21791142 0.2284301 0.090816714 0.09691819
000070 84 f9 10 bd a4 6b 03 be 12 c3 22 3e 5a 09 08 3d
       -0.035394207 -0.1283403 0.15894726 0.033212043
000080 2f e7 9f bd f3 e1 1c 3e dc 18 36 3d 01 29 67 bd
       -0.07807767 0.15320568 0.0444573 -0.05643559
000090 7b 43 b9 bd 2c e7 e7 bc 7c 01 80 bd 5e d5 a9 bd
       -0.09046074 -0.028308474 -0.06250283 -0.0829265
0000a0 d4 9a 98 bc ee 86 4c bd af 0f 7f bd 79 7f 90 ba
       -0.018628515 -0.049933366 -0.062270816 -0.0011024318
0000b0 1c e3 71 bc da 2e d2 3c 8c 2d 28 3e 15 02 1c 3c
       -0.01476362 0.025657106 0.16423625 0.009521981
0000c0 3a 61 e0 3d ef 28 d4 3d 6f aa 4c 3d 81 9f 3e 3e
       0.109560445 0.1035937 0.049967226 0.18615533
0000d0 cc fe 1b 3e ea f6 80 3d b9 d5 f5 3c 69 f0 59 3d
       0.15233916 0.06297095 0.030009137 0.05320779
0000e0 21 fb 97 bd 4c bb a7 3d 9d 61 f0 3d 97 c4 f4 bb
       -0.07420946 0.08190021 0.11737368 -0.0074697244
0000f0 15 93 bc 3d 73 dc f5 3d 9d e1 46 3c f3 26 b0 3d
       0.09207741 0.12004938 0.012138751 0.08601179
000100 18 ae 21 3e 29 74 74 3d 6d 9c 09 3e 19 44 01 3e
       0.15789068 0.05968109 0.13438578 0.12623633
000110 5e ed a9 3d 32 c7 89 3e bd 2e 74 3e 09 62 e9 3d
       0.08297227 0.26909786 0.23845954 0.11395652
000120 4d 47 b4 bc 57 b5 fe 3c 48 bf a3 3d bd 2a 88 bc
       -0.022006655 0.031092329 0.079954684 -0.016621942
000130 d4 15 96 3c eb 61 93 3d 23 0e 62 bd 18 75 dd bb
       0.018320955 0.07196411 -0.055189263 -0.0067583434
000140 3f 78 12 3d f9 a1 4d 3d 54 94 89 3c 55 d4 c5 bc
       0.035759207 0.050203297 0.016794361 -0.0241491
000150 44 85 18 3d de e8 de 3b 03 c1 22 bd 2c 18 2a 3d
       0.037236467 0.0068026623 -0.03973485 0.04152696
000160 e2 6f d8 3b 35 2a 17 bd b0 81 28 bd b6 cd cf 3c
       0.0066051343 -0.036905486 -0.041139305 0.025366645
000170 d9 02 81 3d a5 5f 3c bc fe 51 3e bc 5b 86 0c 3e
       0.06299371 -0.011497413 -0.011616228 0.13723128
000180 af b6 06 bd 3a 7e 69 3c 75 75 2c 3a 2f 1f 80 3d
       -0.032889064 0.014251286 0.0006578782 0.06255948
000190 c5 33 23 3e d2 85 f9 3d 09 da 8e 3d ba 71 24 3e
       0.15937717 0.12183727 0.06975181 0.16059008
0001a0 a7 31 02 3e d9 06 8f 3d 18 b4 16 3e 5e 91 02 3e
       0.12714253 0.06983728 0.14717138 0.12750766
0001b0 37 0e be bc ef 32 d3 36 c2 22 54 3d a3 f9 0b bd
       -0.023200138 6.2942195e-06 0.05179096 -0.03417362
0001c0 fd f0 76 bb f5 c9 92 3d 1c 7d dd bc 3d 49 76 3c
       -0.0037680261 0.071674265 -0.027037196 0.01503211
0001d0 66 81 cc 3d b2 89 5b bd c9 a7 27 3b 48 02 84 3d
       0.09985618 -0.053598113 0.0025582185 0.064457476
0001e0 9c ba 47 3b 96 61 6d ba 88 31 e4 bd 08 79 a1 bc
       0.0030476218 -0.0009055374 -0.1114226 -0.019711033
0001f0 a4 27 f2 3d a4 2a ff bc 55 e7 9f 3c 1c 79 d9 3d
       0.11823967 -0.031148262 0.019519487 0.10618803
000200 9c 89 42 3e c1 a6 b7 3c d5 d6 da 3d 5b c5 21 3e
       0.18997806 0.022418382 0.10685507 0.15797941
000210 1d ca c4 3c 4e ce db 3d 58 43 3c 3e 61 2f c2 bc
       0.024022156 0.10732709 0.18385065 -0.023704233
000220 ce 3e cc 3b af 8a 7f 3d 0f 78 5d bb 0b 39 27 bc
       0.006233073 0.06238812 -0.0033793484 -0.010206471
000230 92 3c 69 3d 26 6d 55 bd 40 31 11 bd dd a7 0b 3d
       0.05694253 -0.052106045 -0.03544736 0.034095634
000240 53 59 4b bd db 65 5a be df b7 40 bc a5 55 07 bc
       -0.049645733 -0.21327917 -0.011762588 -0.008260165
000250 e7 8d a0 bd 35 22 05 3d 43 50 d4 bc aa 4e e9 bc
       -0.07839566 0.032503325 -0.025917178 -0.028479893
000260 0a 23 92 bc 88 97 99 3c ac fe 2c bd 74 27 2e bd
       -0.017838974 0.018749014 -0.04223506 -0.042518094
000270 4d 48 10 bc 86 2c 1c bd 19 43 9e bc 52 1a e8 bc
       -0.0088063 -0.0381284 -0.019319104 -0.028332863
000280 6e df b0 bc 07 ca 57 3b b1 93 16 bd 82 c0 65 be
       -0.021590915 0.0032926814 -0.036761943 -0.22436717
000290 5b 06 54 bd 90 5e 8d 3c c6 7c 65 bd d1 eb 39 3c
       -0.051763874 0.017257005 -0.056027196 0.011347727
0002a0 cb 3d 1c 3c 04 b7 91 bb 4e 42 a7 bc 37 b1 43 3d
       0.009536217 -0.004446866 -0.020417359 0.047776427
0002b0 c4 a8 d8 3b 41 d6 a5 3c 57 fc 4a 3d 68 eb c6 3b
       0.0066119153 0.020243766 0.049557056 0.006070543
0002c0 e1 fe 22 3c dc 87 89 3c 5d a4 55 bc ad 91 a8 bc
       0.009948463 0.016788416 -0.013039676 -0.020577276
0002d0 c2 c9 e0 bc 2a 44 8c bc 90 ed c6 bc dc 26 9b bc
       -0.027439956 -0.017122347 -0.0242832 -0.018939428
0002e0 3c 20 60 ba 9e 85 de ba b2 af a1 bc f6 92 57 3c
       -0.0008549725 -0.0016977077 -0.019737098 0.013157597
0002f0 af 0c 86 3b bc 7e 5f bd c1 c0 51 3f cc 8f 2d bd
       0.0040908675 -0.054564223 0.81934744 -0.042373464
000300 48 14 4c 3c 5a f2 1b bd d9 14 6f bb bb 81 ae 3b
       0.012456007 -0.03807292 -0.0036480932 0.0053255237
000310 99 3c 02 3c 00 e8 d3 bb d9 ff 06 3d a7 43 7d bc
       0.007949018 -0.0064668655 0.03295884 -0.015458024
000320 bc f4 5b 3c 5f a1 eb 3c 75 e8 32 3b 0a 4e 89 3c
       0.013425048 0.028763471 0.00272992 0.016760845
000330 ff 7c 03 3c eb 55 50 bc ee 5f c5 bc 86 77 65 bd
       0.008025407 -0.012715797 -0.024093594 -0.05602219
000340 a1 00 7f be ee c3 3b bd 87 54 33 3b 1f 2f de bd
       -0.24902584 -0.04584115 0.0027363615 -0.108488314
000350 32 3d dd 3b b0 52 c1 3a c0 87 5f bc 34 4a a0 bc
       0.00675168 0.0014749374 -0.013643205 -0.019566633
000360 73 c1 83 3d f0 ce a8 bc b6 a6 0b bd af 79 8d 3d
       0.06433382 -0.020606488 -0.034094535 0.06907975
000370 b7 7a ad 3c ef 7a c4 3c 3a e7 9d 3c 0b de b7 bc
       0.021176679 0.0239844 0.019275296 -0.022444746
000380 04 17 be 3c 5e df af bb 77 b0 2e 3d bc b2 10 3e
       0.023204334 -0.0053672036 0.04264876 0.14130682
000390 38 8d cb 3c 9f 79 8f 3d 0e 3b 2f 3e e2 8b 71 3d
       0.024847612 0.07005619 0.17112371 0.058971293
0003a0 53 41 04 3e 21 9e 55 3e c1 3c 83 3d f3 d1 c4 bc
       0.12915544 0.20861103 0.06408072 -0.024025893
0003b0 ef 63 0f bd ac 8e 10 3c b1 2f 6e 3c 40 8b bc 3b
       -0.035007413 0.008823078 0.014537738 0.0057539046
0003c0 41 c9 6c 3d 82 fc 09 3c 15 15 4a 3b 64 2e 94 bd
       0.05780912 0.008422019 0.003083532 -0.07235411
0003d0 af 36 28 be 0c 85 f1 3b b5 ed 9c bd d9 90 38 be
       -0.1642711 0.0073705968 -0.076625265 -0.18024005
0003e0 b2 eb 63 bb d3 fc a0 bd 30 b9 3b be 75 14 51 bc
       -0.0034777937 -0.078607224 -0.18332362 -0.012761225
0003f0 e7 0b bd 3d ef 3d 14 3c 37 3d da bc 69 51 b5 3d
       0.09230786 0.009047969 -0.026640518 0.088534184

conv2d.4.conv1.bias f4 [8]
000000 52 86 7d be 28 e0 36 bc 34 6b fe bc f3 aa 0b 3e
       -0.2475827 -0.011161841 -0.031056978 0.1363943
000010 03 19 01 bc 1d 05 f8 3d d1 0f 1b 3e 57 5b 91 3e
       -0.007879498 0.1211035 0.15142752 0.2839

conv2d.4.conv2.weight f4 [8, 8, 3, 3]
000000 b5 8f 1c 3e 9e 9d b1 3e 97 9d a8 3e 0c 6d de 3d
       0.15289195 0.34690565 0.32932732 0.10860643
000010 ed a4 93 3e e7 c7 83 3e e0 f4 a5 bd 75 b6 e7 3d
       0.28836766 0.2573845 -0.08103347 0.11314098
000020 01 f0 a6 3d 10 36 ec 3d 9e ff b8 3d c9 71 e1 3c
       0.08151246 0.11533749 0.0903313 0.027520077
000030 8c d6 c7 3d 33 84 bd 3d e4 a0 6f 3c 5f c0 4d 3d
       0.097577184 0.092537306 0.014625762 0.050232287
000040 eb ed ba 3c 4c 2d 32 bd a0 d4 de bc b8 b2 f6 3d
       0.022818526 -0.04350023 -0.027200997 0.12045807
000050 1e be 9c 3d 56 5b da 3c b5 c6 50 3e 7a 05 06 3e
       0.076534495 0.02665488 0.203883 0.13088027
000060 b4 4d 6a 3d 8d 89 8e 3e 4d f0 5f 3e 0f 86 3b bd
       0.05720301 0.27839318 0.21869011 -0.045782145
000070 04 49 8e bc 65 43 8d bc 71 d2 55 bd 3e e6 2b bd
       -0.017368801 -0.01724405 -0.052202646 -0.041967623
000080 31 69 08 bd 63 9e 7d bd 8e dc 39 bd 99 ce 2a bd
       -0.033303443 -0.061918627 -0.045376353 -0.041700933
000090 b4 ac 94 bc ba f1 9e 3d 46 15 6e 3d 5a be f0 3b
       -0.018148758 0.077609494 0.058125757 0.0073469104
0000a0 f1 23 0b 3e 2c 86 c4 3d d3 2e ce 3c 72 37 4d 3e
       0.1358793 0.09595904 0.025168812 0.20040682
0000b0 07 dc 21 3e 4e c8 14 bc 8c 69 a2 bd c9 09 32 bd
       0.1580659 -0.0090809595 -0.07930288 -0.043466363
0000c0 e3 fa 20 bd f7 f9 f9 bd 82 15 b8 bd 06 97 4b bd
       -0.039301764 -0.1220588 -0.08988477 -0.049704574
0000d0 39 c5 f4 bd 82 1a 89 bd f4 16 50 bd ab 0d 9d 3d
       -0.1195168 -0.06694509 -0.05080314 0.076686226
0000e0 46 d8 ee 3d 68 a9 6b bd b3 62 54 bd e5 85 ec ba
       0.11662345 -0.057534605 -0.05185194 -0.0018045275
0000f0 8a c5 3f bc 94 7f 34 bd 28 3d 60 3d 89 b3 d4 bd
       -0.011704812 -0.04406698 0.054745823 -0.10385806
000100 f3 54 10 be 42 8c 86 be ce 26 06 be 88 0d 1d be
       -0.14094906 -0.26278883 -0.1310074 -0.15337193
000110 ea 87 90 be 5d 62 3b be 48 9e 32 be df 5e 67 be
       -0.28228694 -0.18299241 -0.17443192 -0.22594784
000120 88 2b a1 3d b2 e6 d0 bb a5 94 81 3d 7b 51 00 be
       0.07869631 -0.0063751573 0.0632718 -0.12531082
000130 3c e6 2f be 5f cf 35 bd 7a 87 b7 bd ef 35 9b bd
       -0.17177671 -0.044387218 -0.08961387 -0.075786464
000140 43 18 81 3d ac bd 3a bd 3a 54 3b bd 36 6d 86 3c
       0.06303456 -0.04559104 -0.04573462 0.016409498
000150 d1 fa 83 bd ee 7d 8f bd fd 7c 00 3c cf 1f 49 bd
       -0.06444324 -0.07006441 0.0078422995 -0.0491026
000160 4b 92 51 bd 90 0a c1 3c d2 8c 1e 3d 5e 3d ae 3c
       -0.051164906 0.023564607 0.038708515 0.021269497
000170 c7 fe 59 3d 5c 72 53 3c 16 4d fd bc 96 44 5e 3a
       0.05322149 0.012905683 -0.030920547 0.0008478848
000180 66 22 31 bd 36 62 af bd a0 88 79 bd db 00 52 3d
       -0.043245696 -0.08563654 -0.06092131 0.051270347
000190 a9 e4 81 3d 11 c9 78 3d 72 31 6f 3d 9a 7b 9a 3d
       0.063424416 0.060738627 0.058396764 0.075431064
0001a0 d2 fb 8b 3d 59 0a 96 3d a5 8a bb 3d e9 60 b8 3d
       0.0683514 0.073261924 0.09157304 0.09002859
0001b0 c9 e8 3f 3d d3 3b e3 3c 09 48 17 3d 8b e9 8e 3c
       0.04685286 0.027738487 0.036933932 0.017445346
0001c0 e7 29 f0 bb 18 47 bf 3a 57 52 3f bd 91 f3 ab bd
       -0.007329214 0.0014593331 -0.046709385 -0.08396066
0001d0 7b 07 5d bd 5c d0 36 bd 54 f2 78 3c 4a e3 82 3d
       -0.053962212 -0.0446323 0.015194494 0.06391008
0001e0 0b 96 b5 3b 3c 70 95 3d 74 22 06 3e 4c cb d9 3c
       0.005541568 0.07296798 0.1309908 0.026586197
0001f0 cf 68 99 3d 97 8b d8 3d 2c 27 1a 3e 1e df 06 3e
       0.07490694 0.105735 0.15054005 0.1317105
000200 c4 03 1b 3e 0e 0f 50 3e da fb 1d 3e 14 7b f2 3d
       0.15138155 0.20318243 0.15428105 0.118398815
000210 4a 55 a5 3b d1 34 28 bd 20 c0 96 bd ec 08 0a 3e
       0.0050455676 -0.041065995 -0.07360864 0.13479966
000220 95 a8 62 3d ef 82 95 bd 0d 82 d1 3d 87 2f 85 3d
       0.055336554 -0.07300364 0.10229883 0.06503206
000230 dd 7c c8 bc 29 d1 64 3e 44 c4 44 3e c9 30 7e 3d
       -0.024473602 0.22345413 0.19215494 0.062058244
000240 b0 c9 19 bd f2 c8 84 bd aa cd ca bd 1d 8f e6 3b
       -0.03754586 -0.0648364 -0.099025086 0.0070361034
000250 e0 bc 59 bd 96 96 3b bc af 9f 55 bd 39 5f 60 3c
       -0.05315864 -0.011449477 -0.05215424 0.013694578
000260 c9 42 98 bd 9a 06 90 bc 4e fb 31 3b c1 75 1b 3c
       -0.07434613 -0.017581273 0.0027157846 0.009488524
000270 64 8d 9e 3d 1f 22 04 bc 8c d9 56 3c 26 69 43 3c
       0.07741812 -0.008064776 0.013113391 0.011926925
000280 96 46 99 3c f7 97 96 bc 01 9c e3 bc 5c ba e1 3c
       0.018710416 -0.01838301 -0.02778435 0.027554683
000290 0a c0 e4 bb e4 d7 a7 3c 14 bd 81 3d a8 d3 1b 3d
       -0.0069809007 0.020488687 0.06334892 0.038043648
0002a0 a7 79 d0 3b aa b4 3d 3d 6e 2d 8f 3d 38 33 76 3c
       0.0063621583 0.046314873 0.06991087 0.01502686
0002b0 dd 9c c8 3c 1a 15 8f 3a 36 13 52 3c 02 4c 97 3c
       0.02448886 0.0010916323 0.012821963 0.01846886
0002c0 d7 1e 29 bd 52 04 da 3b e7 26 bb b9 4d 15 27 bc
       -0.041289177 0.006653347 -0.00035696404 -0.01019795
0002d0 e6 4e 64 bc c3 db 8a 3c 0d 35 51 bc 65 d4 f4 3a
       -0.0139348265 0.016950494 -0.012768996 0.0018679021
0002e0 d1 91 54 3d 30 7b a4 3c b0 8f 72 3c 2f e6 12 3e
       0.051896874 0.020078272 0.014804766 0.1434562
0002f0 67 bd aa 3d 62 7e ad bc 18 3d c7 3b b0 83 84 ba
       0.08336907 -0.021178428 0.006080281 -0.0010110047
000300 3e c0 07 bd 2e 99 1d bc e6 13 a3 bc 27 5e 22 bd
       -0.03314232 -0.00961904 -0.01990695 -0.039640572
000310 37 60 fc bc 0f f2 3a bc 4d 54 39 3c 8e 14 8f 3d
       -0.030807598 -0.01141025 0.011311603 0.06986342
000320 6c 95 6c 3d 48 8b a9 bc f8 a7 55 bc 1d 39 86 bc
       0.057759687 -0.020696297 -0.013040535 -0.016384656
000330 37 c9 06 bd 0c 67 92 bd 2b a2 45 bc 2d d9 84 3c
       -0.032906737 -0.07148561 -0.01206259 0.016216839
000340 48 80 04 3d 4f 6e 0c 3d 14 e4 7a 3c 35 3e 45 bc
       0.0323489 0.034284886 0.015313167 -0.012038757
000350 f0 20 56 bd 0e 87 48 3c 68 08 6f bc f2 b8 91 bb
       -0.052277505 0.012239231 -0.014589407 -0.004447096
000360 cf 6f a2 3d 55 b6 dc bd a1 71 63 bc 36 31 32 bd
       0.07931482 -0.107769646 -0.013882072 -0.043503962
000370 16 a9 60 be 4a 56 04 be c7 75 eb 3d fc b5 16 3c
       -0.21939501 -0.12923542 0.114970736 0.009198662
000380 08 f5 41 3d 1c ff 5c 3d b1 69 5b 3d 1a 4a a5 3d
       0.04735282 0.05395423 0.053567592 0.080707744
000390 5f 47 8e bb 7e b3 7b bb fd 75 e2 3c 89 54 a3 ba
       -0.004342004 -0.0038406546 0.027644152 -0.0012461107
0003a0 7c a4 11 bc a0 13 84 3c 46 3e f2 3d 09 10 ee 3d
       -0.008889314 0.01612264 0.11828284 0.11624152
0003b0 0d 40 40 3e 56 85 bd 3c 67 ca 36 bc e5 bb 75 3d
       0.18774433 0.023134869 -0.011156655 0.059993643
0003c0 68 fa b2 bd d2 29 0f be 69 08 c0 bd 10 8a 7d bd
       -0.087391675 -0.13980797 -0.09376604 -0.061899245
0003d0 a7 3c 9e bd fb 8d 44 bd 68 c1 96 bd ba e8 a6 bd
       -0.07726412 -0.047986966 -0.07361108 -0.08149858
0003e0 67 e8 1e bd 6b 99 6a bd 16 45 84 bd c6 89 a4 bc
       -0.038795855 -0.057275217 -0.064584896 -0.020085227
0003f0 ac f1 d6 3d 61 3d d7 3d 39 4f 19 3e 90 04 fc 3c
       0.10495314 0.10509754 0.14971627 0.030763894

conv2d.4.conv2.bias f4 [8]
000000 0c 16 c9 bd 57 2e 99 3d 61 21 16 bd df 74 04 3e
       -0.09818658 0.07479542 -0.036652926 0.12935208
000010 0c 54 e4 bb 2b f3 03 bd b2 a5 51 3d 89 3a 4d bc
       -0.006968027 -0.032214325 0.05118341 -0.012526163

conv2d.5.weight f4 [16, 8, 3, 3]
000000 c4 09 51 be 69 cd fe bc 90 e8 2e 3e 24 6a f9 bd
       -0.20413882 -0.031103807 0.17080903 -0.12178448
000010 6e 3e aa bd 0a 5a 9b bc 2b b0 c1 bc a4 72 90 bd
       -0.08312689 -0.018963832 -0.023643574 -0.07053116
000020 70 82 ff bd 8c ae 1b 3d 5c ce a1 bc 8a 73 f8 3b
       -0.12476051 0.038008258 -0.01975172 0.0075821327
000030 a0 89 dd bb cb 91 57 bd 96 88 72 bc e6 73 20 3d
       -0.006760791 -0.052629273 -0.014803072 0.03917303
000040 33 f2 2d bb d9 80 f3 3c 12 d4 71 bc 91 44 d9 bc
       -0.0026542067 0.029724525 -0.014760034 -0.026521953
000050 81 e5 0e 3d 0f 8e fc ba 06 c7 9d bc 1a 7f 47 3a
       0.03488684 -0.0019268411 -0.01925994 0.0007610187
000060 6f 47 a1 bc 82 89 b5 bc fa 18 2a bd 93 fa 96 3c
       -0.019687383 -0.022160295 -0.041527726 0.01843003
000070 a1 c3 e3 3c 6a 4c 03 3e 1f 25 19 bd 6e 8f 15 bc
       0.027803244 0.12822118 -0.037388917 -0.009128435
000080 0a c5 11 3e dc b7 24 3c 05 c5 96 3c 69 b3 0e 3e
       0.1423532 0.010053601 0.018404493 0.13935627
000090 c0 1d fc bd 9d 68 06 be 60 9e c9 bd 8b 68 08 be
       -0.12310362 -0.13125844 -0.09844661 -0.1332113
0000a0 43 8b 07 be 90 a6 8d bd 11 c3 c3 bd 89 b4 88 bd
       -0.13236718 -0.06916535 -0.0955869 -0.06675059
0000b0 00 8c bd bc 42 1e 02 bd df b5 e6 bc 3b 77 07 3d
       -0.023138046 -0.031767137 -0.028162895 0.03307269
0000c0 7a 88 f8 bb a8 21 fc bc 8e b8 12 3b b5 76 e2 bc
       -0.0075846286 -0.030777767 0.0022387835 -0.027644495
0000d0 27 92 1c bd db bb 74 bd 8d 1e 7e 3d e8 f2 22 3e
       -0.03822532 -0.059749465 0.062040854 0.15912974
0000e0 63 c7 46 3e 99 3e a3 3b 56 d5 bf 3d 37 49 1d 3e
       0.19411997 0.0049818275 0.093668625 0.1535996
0000f0 9d cf 55 3b 56 13 9d 3d b9 fe df 3d 25 37 e1 bd
       0.0032624968 0.07669704 0.10937256 -0.10996846
000100 48 cb 10 bd fa 82 20 3e f0 81 51 bd ca 7a 92 bd
       -0.035350114 0.15674964 -0.05114931 -0.071523264
000110 e7 d2 60 3d 53 88 94 bd f5 9b e4 bd d6 01 09 be
       0.054888632 -0.07252564 -0.11162559 -0.13379607
000120 52 a1 c8 3c ee d0 d9 bd 4c 12 47 be dd ab a1 bd
       0.024490986 -0.10635553 -0.19440573 -0.078941084
000130 fb f4 3e be 71 30 2a be a7 36 e0 bd bf 33 05 be
       -0.1864814 -0.16620041 -0.10947924 -0.13008021
000140 70 bb 98 bd b8 68 f9 bd 5c 8a 03 be b5 9a 28 3d
       -0.07457626 -0.12178177 -0.12845749 0.041163165
000150 f1 d4 d3 bb be 1f c4 bc 6d 61 ac 3d 34 59 73 bd
       -0.0064645936 -0.023940917 0.0841702 -0.059411243
000160 28 4d 60 bd da 91 71 3c 0d ce ad 3d ab 83 2f 3e
       -0.054761082 0.014744246 0.08486567 0.17140071
000170 27 18 65 3c 10 8e ea ba 3f e5 2e 3d cb 6d ba bc
       0.013982809 -0.0017895121 0.042699095 -0.022757431
000180 85 f4 c3 bc f9 8e d0 3b 7f 00 ba bc 66 e2 a1 bd
       -0.023920307 0.0063647 -0.022705315 -0.0790451
000190 47 fd d8 bd 40 b5 95 bc 82 a8 34 3d 84 a6 74 bb
       -0.10595184 -0.018274903 0.044106014 -0.0037330696
0001a0 41 42 1a 3d 8e 87 de 3d 81 81 9b 3d d0 c3 c9 3d
       0.03766084 0.10865699 0.0759306 0.098518014
0001b0 fb 42 f5 bd 4e 45 69 3d 6e 5d 21 3e 45 f0 29 be
       -0.11975666 0.05695086 0.15758297 -0.16595562
0001c0 26 aa 94 3b 8f 44 aa 3d b2 42 16 be b8 01 30 3a
       0.004536885 0.08313858 -0.1467388 0.00067141233
0001d0 0c 59 71 3d 17 61 e1 3d 1c f1 63 3e 7b 21 25 3c
       0.058922812 0.110048465 0.22259945 0.010078783
0001e0 68 a3 20 bb 2f 26 5e 3d 80 34 14 bd 87 79 0f bd
       -0.002451146 0.054235633 -0.03618288 -0.035028007
0001f0 d8 ce e7 3b 88 13 f9 bc 21 66 af bd c7 16 1f 3b
       0.0070742182 -0.030404821 -0.085644014 0.002427505
000200 1c b2 6f bb 6e 3e 9c bc 6e 78 84 3d 4e 2f 8f bc
       -0.0036574667 -0.019072738 0.06468283 -0.017478611
000210 36 a2 83 3d 74 9a e4 3d f7 84 83 3a c2 83 35 3e
       0.06427424 0.11162272 0.0010034133 0.17726043
000220 34 5d 98 3e 5b c0 b1 3c 83 bb 67 3d e2 1d f3 3d
       0.29758608 0.021698168 0.05657531 0.11870934
000230 6b da e6 bd 3d d8 d4 bc b8 fd 8b 3c 91 18 ba bd
       -0.11272129 -0.025982017 0.017088756 -0.09086717
000240 31 3f d4 3d e6 50 18 3e e6 db 60 3d 44 66 68 bd
       0.10363615 0.1487461 0.05489721 -0.056738153
000250 c5 8a a1 bc 1b e4 ae bd 3d 96 3b be 3a 0e 44 be
       -0.01971949 -0.085396014 -0.1831903 -0.19146052
000260 db 81 25 be 1f 62 c0 ba 2c 56 55 bd df f6 0e 3c
       -0.16162817 -0.001467768 -0.052084133 0.008725851
000270 23 c9 c8 3d d5 fe 86 3d f6 36 ce 3d 94 18 80 3d
       0.09803989 0.06591574 0.10069077 0.06254688
000280 cc 4f 34 3d d1 a3 13 3d 35 df b3 3d 41 2a dd 3d
       0.044021413 0.0360449 0.08782808 0.10799075
000290 ef 1f 1f 3d e3 6a 5f ba 4a 1a 85 3a db d2 6b bc
       0.038848814 -0.0008522702 0.001015493 -0.014393534
0002a0 81 46 e2 bc 17 67 17 bd f4 8d a9 bc ba a1 2d bd
       -0.02762151 -0.03696355 -0.020697571 -0.042390563
0002b0 2a 47 14 bd cd 82 9d 3c 25 c5 05 3e 77 d9 a1 3d
       -0.03620068 0.01922741 0.13063486 0.07902806
0002c0 6a 6a b2 3d 53 99 2b 3e b8 90 f8 3d 55 86 a6 3d
       0.08711703 0.16757707 0.12136978 0.081310906
0002d0 73 ce c2 bd e9 e8 8d bd b2 93 00 be 78 10 06 be
       -0.09512033 -0.0692919 -0.12556341 -0.1309222
0002e0 9e 55 7e bd 8b d1 c4 bd 09 25 00 be d7 84 cc bd
       -0.06209337 -0.0961028 -0.12514128 -0.09986275
0002f0 8b c4 e8 bd 89 05 c3 3d 03 fb 32 3e 0d 06 f2 3c
       -0.113656126 0.0952254 0.17478566 0.0295439
000300 30 ca 45 3b 19 15 ea 3b d1 07 dd bc 22 8c e7 bc
       0.0030180328 0.0071436283 -0.026981266 -0.028265063
000310 db 87 0c bd 32 2c bf bc 50 2b 1f be 53 10 8f bd
       -0.03430925 -0.023336504 -0.15543866 -0.069855355
000320 07 ca e2 bd 9a 3f e8 bd 7a b2 5b bd b7 33 ce bd
       -0.1107369 -0.11340256 -0.053637005 -0.100684576
000330 1c 52 50 ba 61 cd f3 3b b0 8a 1d bd 3f 47 ac 3d
       -0.00079468056 0.0074402546 -0.03846234 0.084120266
000340 7c 9d 1b 3e 1c 30 c7 3c 49 aa 0f bb 20 6f 10 3d
       0.15196794 0.024314933 -0.0021921566 0.035262227
000350 01 e3 52 bd c7 36 00 be 16 df 05 be a8 b9 ce bd
       -0.05148602 -0.12520896 -0.13073382 -0.10094005
000360 e6 b3 fd 3c a8 73 53 bd 9d 16 b5 bd 7b 99 fc 3d
       0.030969571 -0.05162397 -0.08842204 0.123339616
000370 f5 5e a4 bd b1 b7 41 be b1 e3 64 3d ef 08 3e be
       -0.08025924 -0.18917729 0.055881206 -0.18558095
000380 d5 cd 88 be a1 c8 0b bd ed 82 4f bb 3e 4d 92 3c
       -0.26719537 -0.03412688 -0.0031663731 0.017859098
000390 cb 51 d4 bd 31 a0 47 bd 1d 4b 6d 3c 1d 81 c5 bd
       -0.10367163 -0.048736755 0.01448324 -0.09643767
0003a0 a5 d1 98 bc df 7e 9c 3d d6 94 5e 3d 0b a9 55 bc
       -0.018654654 0.07641386 0.05434116 -0.013040791
0003b0 45 1d 93 bc 64 78 0f 3e 09 d0 05 3d c8 dd d1 bc
       -0.017958293 0.14010769 0.0326691 -0.025618449
0003c0 6a 4d 04 3e b3 19 cd 3c 65 e3 12 bd b1 eb 65 bd
       0.12920156 0.025036668 -0.03586139 -0.056132976
0003d0 f3 ff 48 bd 8f 90 a8 bd b7 fa 98 bd 97 f2 eb bc
       -0.049072217 -0.08230697 -0.07469695 -0.0288022
0003e0 3b 77 24 bd 75 d5 ab bd 6b 9b c1 bc fd c2 c5 3c
       -0.04015277 -0.08390323 -0.02363368 0.02414083
0003f0 ee e1 ab bc 8c 44 64 3d 0f 1b 1c bc a5 e4 7b bc
       -0.020981755 0.055729434 -0.009527936 -0.015374337

conv2d.5.bias f4 [16]
000000 8c 13 84 3c 20 69 b2 bb 69 7f 78 b9 2f 0c b1 bc
       0.016122602 -0.005444661 -0.00023698587 -0.021612255
000010 6f 32 0d bd 19 e4 08 bd 75 39 4d 3a e6 4b 8d bc
       -0.034471925 -0.033420656 0.0007828691 -0.017248105
000020 ad 8c a5 bc 73 87 1a bd 41 d5 8a 3c ec 6d d8 bc
       -0.020208681 -0.03772683 0.01694739 -0.026419602
000030 bf 9f 2b bd 40 48 7b bd 2f 22 60 bd dd 83 3b bc
       -0.041900393 -0.0613482 -0.0547201 -0.011445013

conv2d.9.weight f4 [64, 16, 3, 3]
000000 34 9d 43 3d 84 33 80 bc 09 24 da bd 46 32 0c 3d
       0.047757342 -0.015649565 -0.106514044 0.034227632
000010 d1 51 da 3b ba 2a 9d bc ec 15 3b 3c 5e 9b e1 bb
       0.0066625853 -0.019185413 0.011418801 -0.0068849763
000020 d4 05 6b bd a9 2a 55 3c 9f 12 6c bc ae 2b 71 bd
       -0.057378605 0.013010659 -0.0144087365 -0.058879547
000030 e6 8c 04 bd 11 00 9a bb 6f 76 9e 3c 39 f6 30 ba
       -0.032360934 -0.004699715 0.019343583 -0.0006750557
000040 f4 a6 2c bc 56 9a 0e bc 6d db 53 3c 33 e8 23 3d
       -0.010537852 -0.008703789 0.012930733 0.040016364
000050 e5 17 c7 bd c8 02 01 bb 1f 33 2c 3c 25 07 50 bc
       -0.097213544 -0.0019685496 0.010510235 -0.012697016
000060 38 76 b0 3c 11 6d d0 3c d2 7f 13 bd 66 cf 54 bd
       0.021540746 0.025442632 -0.03601057 -0.051955603
000070 a9 35 8c 3d e5 c1 f8 3c 32 ae 89 bc af c5 44 bd
       0.06846172 0.030365894 -0.016806696 -0.04804009
000080 bd 00 88 bc 6f d9 35 bd 52 c0 ff 3c 12 75 e2 3c
       -0.016601915 -0.044396814 0.031219635 0.027643714
000090 27 12 e4 3b 69 59 f8 3c ce 29 ae 3c c2 cb 35 bd
       0.0069601717 0.030316072 0.021260168 -0.04438377
0000a0 0c 3e cf bd a9 90 8c bd c3 38 81 bd d3 b2 ae 3c
       -0.101192564 -0.06863529 -0.063096546 0.021325504
0000b0 b3 e0 fa 3c a6 2c d8 3c d8 70 de bc d3 da c9 bc
       0.030624723 0.026388478 -0.027153417 -0.024640476
0000c0 32 d2 5e bd 15 f6 7e bd 1e 10 7e bd 64 bb af 3b
       -0.054399677 -0.0622464 -0.06202709 0.005362915
0000d0 fd 88 75 3a f7 59 98 3c 6f fe 05 3d 38 b4 ce 3b
       0.0009366421 0.018597586 0.03271335 0.006308105
0000e0 f8 aa 62 3c 90 2f b7 bd dc 21 a4 bd bb 9c 09 bd
       0.013834707 -0.08944619 -0.08014271 -0.033596735
0000f0 43 b0 a2 bd a9 61 97 bd a4 cf 98 bb 55 38 ed 3c
       -0.079437755 -0.07391674 -0.0046634246 0.028957525
000100 b9 c4 51 3c 5b 6a 94 bc 76 96 6d ba 43 39 62 3c
       0.01280325 -0.01811712 -0.0009063253 0.013807598
000110 ae c1 ef bc ff b1 4f bd 3a 6b 09 bd 3d 5d e0 bc
       -0.029267158 -0.05070686 -0.033549525 -0.02738821
000120 20 98 0e 3a 59 3e 86 bb 3d 81 f4 bd 48 dd 0c 3d
       0.00054395385 -0.004096788 -0.11938713 0.034390718
000130 88 9f b6 bb da 4c 22 bd 69 e5 2c 3d 5b 1a 72 3c
       -0.005573217 -0.039624073 0.04221097 0.014776791
000140 4d cf 73 bd 32 5c 28 3a aa 56 17 bc f7 f8 6f bd
       -0.05952387 0.00064224296 -0.009236971 -0.05858704
000150 1b c2 54 bd 35 6a 9e bd ed 6f a6 bd e8 29 ab bc
       -0.051942926 -0.07735101 -0.08126817 -0.020894006
000160 6d dd 27 3a 89 90 50 3d 6b c4 eb 3c 59 9b ee 3c
       0.00064035394 0.05091909 0.028780183 0.02912681
000170 5a 8f a3 bd c3 b2 d4 3c 03 69 ff 3c 17 eb 6c 3c
       -0.079863265 0.025964146 0.031178003 0.014460347
000180 64 04 88 3c 0d fb e0 bb c0 ad c9 bc d7 30 b2 3c
       0.016603656 -0.006865865 -0.024618983 0.021751804
000190 41 0e 0b 3d 0e d1 de 3c a1 db be bd b4 34 9f bd
       0.03394914 0.027199294 -0.09319235 -0.07773724
0001a0 e1 85 37 bd c4 e9 7f bd 38 70 af ba 39 10 f6 bc
       -0.04480541 -0.062478796 -0.0013384884 -0.030037032
0001b0 5d b8 9d 3c 3e d2 d0 3c bf 73 6a 3c 9f a3 85 bd
       0.01925295 0.025490876 0.014309823 -0.06525349
0001c0 17 98 9d bd 3a a2 3b bd 4a 26 6f bd f4 50 04 bd
       -0.076950245 -0.04580901 -0.058386125 -0.032303765
0001d0 8e 64 6e bd eb 85 ca ba f7 6f 88 bd f4 52 78 bc
       -0.058201365 -0.0015451288 -0.066619806 -0.015156496
0001e0 b8 0a 00 bc 6b 82 32 bd f8 36 9b bc bb 60 05 3d
       -0.007815056 -0.043581408 -0.01894711 0.032562952
0001f0 fd af c2 bc cc 02 2a bd 65 cf bd 3b fb 77 57 3d
       -0.023765558 -0.041506574 0.0057925456 0.052604657
000200 3c 8a df bc 2d 24 b6 bd 27 ae bf bd 04 2a 63 bd
       -0.027287595 -0.08893619 -0.09359389 -0.05545999
000210 20 4c 8c bc 12 da 9b 3c fd 3e cd bc 38 1b b0 bd
       -0.017126143 0.019024882 -0.02505445 -0.085989416
000220 76 3a 24 3d fe f4 8d 3d aa 11 96 bd e1 27 4a bd
       0.040094815 0.06931494 -0.07327588 -0.049354438
000230 82 20 99 3a 66 68 8c bd 44 34 80 bc 69 00 4c bc
       0.0011682662 -0.0685585 -0.015649922 -0.01245127
000240 31 14 7c 3c b7 81 7d bd 98 59 5a bd 5b c3 8e bb
       0.015385673 -0.061891284 -0.0533081 -0.0043567843
000250 6e 7e 9c bd ef 05 71 bd 4b ad 72 3c 8e 4a d1 bb
       -0.07641302 -0.05884355 0.014811824 -0.0063870614
000260 3e 36 48 3d 58 41 5f bd fc ae 44 bd 6d 48 ab bd
       0.048879854 -0.054505676 -0.04801844 -0.083634235
000270 68 af b8 bd f6 3f ab bd 49 bb 1d bd 64 f3 8a bd
       -0.09017831 -0.08361809 -0.038508687 -0.06784704
000280 95 08 0f 3c cf 43 cc bb 10 93 8e bd c2 dd a7 bc
       0.008730073 -0.0062336694 -0.06961644 -0.020491485
000290 f6 9d 8e bd 74 c2 f7 bd 28 a3 c8 bd 67 65 7d bd
       -0.069637224 -0.12097636 -0.097967446 -0.061864283
0002a0 9e dd 67 bd 3e 67 1c 3c bc 89 7f 3c c1 f6 90 bd
       -0.056607835 0.009546099 0.015596803 -0.070783146
0002b0 fd fb 4d bc 36 e2 c0 3c 92 be 42 bd 06 d8 c9 ba
       -0.012572286 0.023545366 -0.047545023 -0.0015399463
0002c0 0d 0d a2 3c c2 86 84 bd ae c0 9c 3c 36 28 56 bd
       0.019781614 -0.064710155 0.019134846 -0.052284442
0002d0 b9 60 b7 bd 2c 21 44 3d a3 28 94 3c 57 0d ca bd
       -0.08953995 0.047883198 0.018085783 -0.098658256
0002e0 2f 12 c2 3c 02 4f 0d b8 e2 ed 86 bd 77 49 94 bd
       0.023690311 -3.36906e-05 -0.06588341 -0.07240575
0002f0 11 35 e8 bd a0 02 1b 3d 4e 0d 4b 3d 59 96 9d 3c
       -0.113382466 0.0378443 0.049573235 0.01923673
000300 f9 68 76 3c 67 e4 12 3d 91 96 dd 3c e8 f6 11 3d
       0.015039676 0.035862353 0.027049335 0.03563586
000310 cf f2 f6 3b 7b e1 ac 3a 8e e1 8a 3d 51 05 7a bd
       0.0075362693 0.0013189757 0.067813024 -0.061040226
000320 63 7e 3c bd d0 e9 46 3c 4d 59 53 bd 09 f6 3b bc
       -0.04601897 0.012140706 -0.051598836 -0.011472234
000330 dc 65 5d 3c f0 d7 ad bd 47 d5 f9 3d 9d 9b 7b bd
       0.013513055 -0.084884524 0.121988826 -0.0614277
000340 60 93 88 bb 1f b7 8e bd e1 b0 eb bd 10 93 44 3d
       -0.004167959 -0.06968521 -0.11508346 0.047991812
000350 fb f5 a0 bb 17 ff c1 bd 57 99 ac 3c e4 8a b0 3b
       -0.0049121357 -0.09472483 0.021069212 0.005387651
000360 0b 75 44 bd dd 39 3e bc 6e 3a 0b bd 33 0d 75 bd
       -0.047963183 -0.011610475 -0.03399127 -0.05982704
000370 19 75 bc bd ed 5f b3 bd af e3 ad bc 48 22 16 bc
       -0.09202022 -0.08758531 -0.021226732 -0.009163447
000380 e6 93 89 bc 3f b5 fb 3b cc 9c bf 3d ea 77 5b 3c
       -0.016794156 0.0076815183 0.093560785 0.013395289
000390 41 2a 17 bd 4d b0 53 bb 78 13 84 bb be ae 46 bd
       -0.03690553 -0.0032301128 -0.004030641 -0.04850649
0003a0 8e 07 80 ba e7 14 b4 bc 19 b2 23 bd 75 8e 35 bd
       -0.0009767876 -0.021982623 -0.03996477 -0.04432531
0003b0 65 24 b5 bd 60 c7 c1 bd 84 a0 57 bd bf 4b 00 bd
       -0.08844832 -0.09461856 -0.052643314 -0.031322237
0003c0 9a 0a 09 bd 17 77 24 3d 36 27 06 3c 23 c0 a0 bd
       -0.033457376 0.040152635 0.00818806 -0.07849147
0003d0 5b 93 62 3c e8 ac 9a 3a b9 6a 0a be 9e 34 a2 3c
       0.013829078 0.0011800798 -0.13517274 0.01980048
0003e0 eb c0 36 bb 79 34 50 bd bf ad c9 3b 4f 6b a6 bd
       -0.0027885984 -0.05083129 0.0061547454 -0.08125936
0003f0 cf 96 bf bd 20 cc 3f 3c 25 e9 22 bc de 22 0e be
       -0.09354936 0.011706382 -0.009943281 -0.13880488

conv2d.9.bias f4 [64]
000000 fc 98 a7 bd 54 53 6b bc 53 8e f6 bc bd b8 5d bd
       -0.08183476 -0.014363129 -0.030097162 -0.05413126
000010 ca bc 61 bd 00 83 80 3c 04 4a 52 bd 7b e4 ec bb
       -0.055111684 0.015687466 -0.051340118 -0.0072293854
000020 85 b6 5c 3d e8 ed c1 bc ed eb 27 bd 2c 43 7c bd
       0.053885 -0.023673013 -0.04099648 -0.061587498
000030 d3 8d 13 bd b2 b3 53 bd 0a ad fc bb 97 9e 4b bd
       -0.036023926 -0.051685043 -0.0077110576 -0.04971179
000040 e1 55 91 bd 67 4c a4 bd c4 97 ae bd 1b 41 0b bd
       -0.07096458 -0.08022385 -0.08525041 -0.033997636
000050 19 ea 98 bc bc 7d 18 bd d8 37 bb bc 74 a9 20 bd
       -0.018666314 -0.037229285 -0.022853777 -0.039224103
000060 ee f8 33 bd 6e f7 00 bd 78 f1 bf bd f5 b7 58 3d
       -0.04393857 -0.031485967 -0.093722284 0.05290981
000070 48 b0 92 bd e1 5c 5f bd 79 08 4b bd 21 8b f7 bd
       -0.07162529 -0.054531936 -0.049568627 -0.120870836
000080 4e 0a 5b bd e5 3f c4 bc dc 6d 0c bd 44 81 31 bd
       -0.053476624 -0.023956249 -0.034284458 -0.043336168
000090 75 32 a3 bc 10 c3 9f bb ce 69 50 bc ff 81 17 bb
       -0.01992152 -0.004875548 -0.012720538 -0.0023118255
0000a0 17 ef 43 bd 42 9e 4e bd 89 21 9d bc c5 8f 54 bd
       -0.047835436 -0.050443895 -0.01918103 -0.05189492
0000b0 01 13 df bc 75 2a 52 bd 6a 75 f5 bc 5e 3f b0 bc
       -0.027230741 -0.05131002 -0.029963214 -0.02151459
0000c0 7e 8c a6 bd bd 05 4a bd 88 66 6e bd e1 b9 50 bc
       -0.081322655 -0.04932188 -0.05820325 -0.0127396295
0000d0 1d 64 05 bd 9a f8 3b bc 57 88 0d bd 96 82 df bc
       -0.03256618 -0.011472845 -0.034553852 -0.027283948
0000e0 aa cc df bc ef c9 97 bc f0 a1 a3 bd 25 7e 31 bc
       -0.027319271 -0.018528907 -0.079898715 -0.010833298
0000f0 67 53 82 bd 47 50 d0 bd fe 14 e6 bc 14 4c d1 3c
       -0.06363564 -0.10171562 -0.028086182 0.025548972

gru.weight_ih_l0 f4 [384, 32]
000000 6a 63 34 3d 77 a6 a0 3c 49 da 78 ba 9a 47 6d 3c
       0.04404012 0.019610627 -0.0009492976 0.014482403
000010 a3 5d ac 3c 65 cd 1c 3d 74 e3 74 3d 76 44 3a 3d
       0.021040743 0.038281817 0.05978723 0.045475446
000020 23 49 63 3d 2a c0 32 3d 39 38 2a 3d ce 7f ff 3c
       0.05548967 0.043640293 0.041557524 0.031188872
000030 05 f4 b2 3c 13 e6 ea 3c bf ad 9d 3c 0d ce 04 bd
       0.021844873 0.028674161 0.019247888 -0.032423068
000040 72 4f 1e bc fd 78 65 bd 47 07 f2 bc b6 af 92 bd
       -0.009662496 -0.056023587 -0.029544486 -0.071624205
000050 67 1e 20 bd 35 29 76 bc a5 7e 30 bd a7 ca 78 bb
       -0.039091494 -0.015024473 -0.043089528 -0.0037962587
000060 93 6d 14 3d 26 6b 13 3c 79 70 37 bd 2d 48 c6 bd
       0.03623731 0.008997714 -0.044784997 -0.09681735
000070 9e 96 76 bd 7f 79 b4 bd ae ab dd bd b4 4c a4 bd
       -0.060202233 -0.08812236 -0.10823761 -0.080224425
000080 11 42 a9 3c 0d 8b ae 3c d7 36 c8 3c fc 70 cc 3c
       0.020661386 0.021306539 0.024440212 0.024956219
000090 fc 2b ed 3c 47 56 a9 3c 91 ce eb 3c d3 10 ad 3c
       0.028951637 0.020671023 0.028785022 0.021126186
0000a0 73 c0 96 3c 4c 11 75 3c 81 e6 a3 3c 2b 1f ac 3c
       0.018402314 0.014957737 0.020007374 0.021010956
0000b0 f4 4c 0a 3c ef e9 ce 3a 67 3c f5 ba 2b 03 81 ba
       0.008441199 0.001578627 -0.0018710018 -0.0009842863
0000c0 c6 0f 18 bc f1 23 6b b9 32 0f e4 bb 5f fc 7c bc
       -0.009281104 -0.00022424736 -0.0069598192 -0.015441029
0000d0 7b 22 f1 39 54 e8 8c bc 79 a8 46 bc b1 67 20 bc
       0.00045992792 -0.017200626 -0.012125128 -0.009790347
0000e0 62 7f 44 bb e4 ea a1 bb e0 d0 5e bc 32 95 d4 bc
       -0.0029983153 -0.004941331 -0.013599604 -0.025950048
0000f0 73 7d f7 bc d0 16 de bc 79 5a 08 bd 66 b2 16 bd
       -0.030211186 -0.027110487 -0.033289406 -0.036791228
000100 55 9e 7d 3d 90 09 1b 3d 77 2a f7 3c da 6e f8 3c
       0.061918575 0.037850916 0.030171616 0.030326296
000110 65 a3 54 3d 36 91 73 3d 2d 5c 81 3d 49 78 86 3d
       0.051913638 0.059464656 0.06316409 0.06565911
000120 df fc 7e 3d 3a 3a 58 3d a0 eb 22 3d f8 3d 68 3c
       0.062252875 0.052789904 0.03977549 0.014174931
000130 cf 30 42 bc fe 01 af 3c ea ec 2a 3d c1 b9 04 3d
       -0.011852457 0.021363255 0.041729845 0.03240371
000140 dd 22 af bb af cf 01 3c e7 be 5d bd 15 15 f4 bc
       -0.005344732 0.007923051 -0.054137137 -0.029795209
000150 cc 59 ca bc 30 9d 20 bd 8e f7 05 bd 8f 41 ff bc
       -0.024701022 -0.039212406 -0.03270679 -0.03115919
000160 95 03 0e bd 00 d7 78 bc eb 37 d8 bc fd f8 3f bd
       -0.034671385 -0.015187979 -0.026393851 -0.046868313
000170 b9 74 8d bd b9 46 a2 bd 51 58 76 bd b2 9d 54 bd
       -0.06907029 -0.079236455 -0.06014282 -0.051908202
000180 25 af d7 b9 1f b5 fc 3b e2 01 29 3c 41 f6 13 3c
       -0.00041138488 0.007712021 0.01031539 0.0090308795
000190 35 18 fb 3b e4 94 fb 3b 63 e2 14 3c 19 f5 b3 3b
       0.007662798 0.0076776613 0.009087178 0.0054918644
0001a0 7e 14 c7 3b bb 56 ab 3b 31 d9 28 3a 40 02 78 bb
       0.006075441 0.005228845 0.00064410554 -0.0037843138
0001b0 4b 38 c2 bb 64 9f 77 bb 3d 1d cb bb ca 4b af bb
       -0.005927121 -0.0037784213 -0.006198554 -0.005349611
0001c0 6c eb ff bb d1 1a 84 bb 31 64 56 bb 0d 3e b1 ba
       -0.007810047 -0.004031517 -0.0032713527 -0.0013522521
0001d0 2d 2b 1d 38 49 11 c1 bc 28 d5 73 bc d8 0a 36 bc
       3.7471927e-05 -0.023567813 -0.014882363 -0.011110984
0001e0 e2 ff 9c bc ae 35 96 bc 04 3b 8f bc 24 a1 e8 bc
       -0.019164983 -0.018336143 -0.017484196 -0.02839715
0001f0 7a b7 c8 bc c7 f6 f0 bc 79 28 05 bd 42 5b cb bc
       -0.024501551 -0.029414548 -0.0325093 -0.024823789
000200 cf 0c 5e bc 0d 7a 9d 3a 6f ff 2d 3a 0f b2 9a ba
       -0.0135528585 0.0012014523 0.0006637489 -0.0011802333
000210 80 da 61 3c b4 60 f8 3c 4f 75 9e 3c a0 03 ba 3c
       0.013785005 0.03031955 0.019343046 0.022706807
000220 0b 5a b8 3c 90 f2 d7 3c ac 23 fd 3c bb 4c c1 3c
       0.022503873 0.02636078 0.030900799 0.023596158
000230 08 59 8a 3c 61 2f c0 3b 31 d6 49 bc 11 82 89 bc
       0.016888157 0.005865023 -0.012319134 -0.016785653
000240 f0 2d f9 bc 7f 20 bb bb 65 ed a3 bc 30 a1 86 bb
       -0.030417413 -0.005710661 -0.02001066 -0.0041085705
000250 95 b6 ab bc f1 d5 27 bd ec 8f f7 bc bc ad 15 3c
       -0.020961085 -0.040975515 -0.030219994 0.00913566
000260 3c c6 36 3c a0 ce b1 bb 43 3e 27 bc 9f 8e 6f 3b
       0.011155661 -0.005426243 -0.010207715 0.0036553515
000270 76 4a 6c bc cc 77 be bc e7 4f 13 bd c2 1a 0b bd
       -0.01442205 -0.023250483 -0.035964873 -0.033961065
000280 80 cc 35 3d 32 e5 2e 3d ac 22 17 3d 38 65 06 3d
       0.04438448 0.042699046 0.0368983 0.032811373
000290 a8 a3 b0 3c 71 5a bd 3c 5f 10 be 3c 8c bd c3 3c
       0.021562412 0.023114415 0.023201166 0.023894094
0002a0 8c 91 9f 3c 5b a1 f5 3c 6b 1c e8 3c 32 22 c0 3c
       0.019478582 0.029984167 0.028333863 0.023453806
0002b0 95 4c 80 3c 0e b1 b4 3b 4f f6 2b 3b 4e 4d ce ba
       0.015661517 0.0055142706 0.002623934 -0.0015739591
0002c0 3f 31 92 3b c0 1e 3f 3c 6c 2e ab 3b 5e 67 73 3b
       0.004461437 0.011665046 0.00522404 0.003714047
0002d0 2a 5f b8 bb b2 a1 f6 bb 00 d8 95 bb ca a4 e5 bb
       -0.005626579 -0.0075266 -0.0045728683 -0.00700817
0002e0 f1 89 6d bb d8 fe 40 bc ef c6 f5 bb 42 ee a9 ba
       -0.003624555 -0.0117795095 -0.0075005214 -0.0012964683
0002f0 e9 9d 84 bc a2 7c 03 bd 04 ba 0a bd c7 41 ee bc
       -0.016188579 -0.03210128 -0.033868805 -0.0290841
000300 e2 5c 94 3c ce 7b 51 3c cb 8f 00 3c b1 df 36 3c
       0.018110696 0.012785865 0.007846783 0.011161731
000310 32 d2 85 3c 0e 9c bb 3c 87 1a 81 3b 8e d8 c5 3a
       0.01633558 0.022901561 0.00393993 0.0015094446
000320 4a 6e bb 3b e4 d4 63 3c 4b 09 66 3c ad 7b 35 3c
       0.0057199346 0.013905738 0.014040302 0.01107685
000330 cc 78 08 3d 5a 3e 9e 3b 18 96 02 bb e1 9d 20 38
       0.033318326 0.00482921 -0.0019925889 3.829401e-05
000340 b4 0b 0f 3c ea c0 84 3c d5 a7 0e 3c 5f 93 72 bb
       0.008730818 0.01620527 0.008707006 -0.003701411
000350 a6 04 9b bc 06 7b 3a bc c0 1f bf bc 34 56 3c bc
       -0.018923115 -0.01138187 -0.02333057 -0.011495162
000360 9c cc 01 bc aa 8b f7 bb d6 9a 50 bc 25 69 90 bc
       -0.007922318 -0.007554491 -0.012732228 -0.017628262
000370 79 a7 03 bd e1 ec 4d bd 1e 4d 73 bd 90 ff 79 bd
       -0.032142136 -0.050274733 -0.059399717 -0.06103474
000380 3a e4 41 3d b6 ed f6 3c 90 c8 c7 3b 67 cf 10 3c
       0.047336794 0.030142646 0.006096907 0.008838511
000390 53 5f b6 3c 16 fc 8f 3c ad 6a b0 3c 6e f1 ec 3c
       0.022262251 0.017576259 0.021535242 0.028923716
0003a0 25 aa e1 3c 41 41 ed 3c 91 e2 97 3c 4e 18 4b 3c
       0.027546952 0.02896178 0.018540652 0.012395931
0003b0 a4 b8 53 3c 43 cc 57 bb ff 2e c7 bc 29 96 42 bd
       0.01292244 -0.0032928146 -0.024314402 -0.047506485
0003c0 c7 d0 8c bc f1 eb e4 bc c7 7f 3b bd 48 19 50 bd
       -0.017189397 -0.027944537 -0.045776155 -0.05080536
0003d0 b8 29 e3 bc ad 7a d6 bc 84 15 1a bd 88 f6 b5 bc
       -0.027729854 -0.026181543 -0.037618175 -0.022212282
0003e0 b7 fd b0 bc 8b 30 00 bd 02 d6 35 bc 26 c7 e6 bc
       -0.021605356 -0.031296294 -0.011098387 -0.028171133
0003f0 49 41 42 bd 4e 50 9b bd d6 dc 9a bd 0d cc 95 bd
       -0.047425542 -0.07583676 -0.07561652 -0.0731431

gru.weight_hh_l0 f4 [384, 128]
000000 87 3c 8b 3c 28 c9 3a 3c 93 77 a7 bb fd 4e 9a 3c
       0.016996635 0.011400498 -0.00511069 0.018836493
000010 bf a4 08 3d 69 4e 11 3d 92 c5 4b bc 49 5b f3 3c
       0.03336024 0.03547517 -0.012437241 0.029706614
000020 f8 93 21 bd 53 87 61 bb 5d 78 04 bd a6 6f d3 b9
       -0.039447755 -0.0034412935 -0.03234135 -0.0004032824
000030 fb 81 23 3d 2b b2 a5 bb 7a a6 d0 3b b1 a2 a7 3c
       0.03991888 -0.0050566397 0.006367502 0.02046332
000040 5c e4 0a 3c e2 aa 44 bd 6f f8 bb bc 98 94 da bb
       0.008477297 -0.04801453 -0.02294561 -0.006670546
000050 d0 3a 4f 3d 1f f6 16 bb 56 e4 de 3c 7f ea 46 3c
       0.050593197 -0.0023034883 0.027208488 0.012140869
000060 5e 72 16 3b 70 01 d0 3b 26 93 94 3c aa 36 0b 3d
       0.0022956352 0.0063478276 0.018136572 0.03398768
000070 d7 78 03 bc f2 a5 86 3a 54 e8 a2 bc 12 3e 75 3c
       -0.008024416 0.0010272844 -0.019886173 0.014968412
000080 25 91 e4 bb 10 8c 18 3c 74 b6 2c bd ed 91 18 bd
       -0.0069753104 0.009310737 -0.04216619 -0.03724854
000090 f8 cd 95 bc 3f eb dd 3a 08 c4 eb 3c 33 8c 2e 3c
       -0.01828669 0.0016931071 0.028779998 0.010653543
0000a0 8e 43 07 bc c9 4b d1 bc d1 58 00 bd e4 88 14 3c
       -0.008255852 -0.025548832 -0.031334702 0.00906584
0000b0 f5 b7 01 3d ad 82 4f 3d 33 db 13 bd da 29 4a bc
       0.031669576 0.05066173 -0.036097717 -0.01233908
0000c0 7d 76 9a 3c 12 49 77 bc 5f 3e b8 3c 95 1a cd 3b
       0.018855328 -0.015093105 0.022490678 0.0062592723
0000d0 91 22 2a 3d 7a 8b 94 bc 2b 18 41 3d fe 75 cd bb
       0.04153687 -0.018132914 0.04714219 -0.0062701693
0000e0 07 b1 53 bc 4a 72 f9 ba 8b 48 10 bd ee 4c 8a 3a
       -0.012920625 -0.0019031253 -0.035225432 0.0010551491
0000f0 0c 7b 25 3d d0 7b c2 3c 4f 53 58 bc 0a 25 0f bc
       0.04040055 0.023740679 -0.013203456 -0.008736858
000100 3e bb 32 3a a1 85 1a ba 64 1b 95 3d ac 32 11 bd
       0.00068180624 -0.0005894546 0.07280615 -0.035448715
000110 9c 5d fb bc e5 33 f4 bb 75 06 02 3b f4 8c 25 3c
       -0.030684285 -0.0074524754 0.0019840274 0.010104407
000120 8f 6b 0e bd 98 7e 09 bc e1 3b fe 3c 77 35 a2 3c
       -0.034770545 -0.008391999 0.031034412 0.019800885
000130 23 47 7b bc fd 56 52 3d f0 b6 93 3c 2d ca 94 bc
       -0.0153367845 0.05135249 0.018031567 -0.018162811
000140 75 08 29 bc 32 3b a0 3c 52 4d 58 bd 47 70 af bc
       -0.010316958 0.019559477 -0.052808113 -0.021415843
000150 29 bf 3c 3c 19 9e 07 bc d7 93 0a bc 5f 60 8d 3c
       0.0115201855 -0.0082774395 -0.008458099 0.017257867
000160 35 c5 82 3c e3 e7 6d 3c c9 e2 db 3c 4e 8e b1 bb
       0.015963176 0.014520618 0.026841538 -0.0054185754
000170 20 48 fe 3a 37 3c e5 3a 7d 06 15 bc d2 c7 13 bd
       0.0019400157 0.0017489259 -0.009095785 -0.036079235
000180 1c 1a 58 3b ff 00 c6 3c cd be 08 bd 8a 88 47 3c
       0.0032974547 0.024170397 -0.033385087 0.01217855
000190 cf e9 d7 3c 1e 8e 8f 3c 3e 20 de 3c 4b 20 dc 3b
       0.026356606 0.017523821 0.027114984 0.006717717
0001a0 a0 16 e9 bc 5a 53 85 3c 19 eb a2 3d 09 1d 59 3c
       -0.028453171 0.016275097 0.079549976 0.013251551
0001b0 8b 4d 03 3d e2 ee ef 3b 15 cd 67 bc 56 3f 44 ba
       0.032056373 0.007322178 -0.014148016 -0.00074862444
0001c0 18 fe 3a 3d 72 3f 75 3c 4c 78 4d bc 02 5b 89 bc
       0.04565248 0.01496874 -0.012540888 -0.016767029
0001d0 5d f0 26 bc c4 87 06 3c 4c 5e 8a 3b a1 47 1c bd
       -0.010189143 0.00821108 0.004222667 -0.03815425
0001e0 40 9f 44 bc 61 cd 55 3c 7a e5 05 3c fd 7d 77 bc
       -0.012000859 0.013049454 0.008172387 -0.015105722
0001f0 ef c7 d0 bc d3 1e 9a 3b 67 78 fb 3b 8e 41 b1 3c
       -0.02548596 0.0047033816 0.007674265 0.021637704
000200 d4 2e 1e 3c 97 47 fb 3b f2 46 2d bc cb b5 0d 3c
       0.009654719 0.0076684463 -0.010575997 0.0086493
000210 8c c2 38 3b 77 b1 0b 3c 85 84 29 ba de 81 83 3c
       0.002819213 0.008526198 -0.00064665853 0.016053136
000220 07 5f 14 bc c0 fe bc 3a 67 7b a4 bb fa 60 72 bb
       -0.009055859 0.0014419183 -0.0050195935 -0.0036984072
000230 6a 36 c6 3b cc 15 4a bc 6b 4e 82 bb 76 7b 5a bb
       0.006048967 -0.012334298 -0.0039766333 -0.0033337749
000240 f3 3e 01 3c 97 58 2b bc 19 8e e2 3b 84 74 e6 bb
       0.007888543 -0.010458133 0.006913912 -0.0070329327
000250 56 5c 67 3c cf a6 e6 bb 54 04 bd 3b c4 ff 99 bb
       0.014121136 -0.007038928 0.005768338 -0.004699679
000260 8c 00 1c bc 21 85 b0 bb d2 b0 49 3b 11 ea 4e 3c
       -0.009521615 -0.005386964 0.003077556 0.012629048
000270 b6 18 93 ba 42 a2 02 3b 63 4d 08 3c 23 6e 00 3c
       -0.0011222574 0.001993314 0.008319232 0.007838759
000280 20 b6 1c bc 7f 01 b8 3b 63 5a 11 bc 5e 4a af bb
       -0.009564906 0.0056154127 -0.0088716475 -0.0053494414
000290 f3 39 05 bb f5 f9 c8 3a 8a 7c 91 3b b3 ed b4 3b
       -0.002032873 0.0015333282 0.004439895 0.0055215
0002a0 9a 24 05 bb 55 f6 eb bb f4 51 65 ba d8 fa 2b 3c
       -0.0020316006 -0.007200996 -0.00087478687 0.0104968175
0002b0 6f ad 77 3c 0d 0d 54 3c c8 3a 72 bc fb 4c d0 3a
       0.015117033 0.012942565 -0.014784522 0.0015892083
0002c0 9c 52 9a 3c 37 3b a0 bb 2e d1 2c 3b 88 86 cb ba
       0.01883822 -0.0048898715 0.0026369798 -0.0015527764
0002d0 a8 7e 1f 3c d5 78 f6 b9 b0 fc 44 3c 64 7a 98 bb
       0.009734787 -0.00047010803 0.012023136 -0.004653262
0002e0 35 44 48 b9 85 47 2d bc 7c 09 73 bc eb 3d 1b bb
       -0.00019098895 -0.010576134 -0.014833804 -0.002368803
0002f0 ce c2 21 3c 6b d4 03 3c 6b 60 e3 bb cb b4 68 bc
       0.009873105 0.00804625 -0.006938984 -0.014203261
000300 32 ed 1d 3c 68 c7 51 bb ff 2f 36 3c 29 fc 66 3b
       0.009639071 -0.0032009725 0.011119842 0.0035245514
000310 36 3b 25 bc 44 a9 92 bc 20 6a 00 bb fe 81 0d 3c
       -0.010084918 -0.017902978 -0.0019594505 0.00863695
000320 c2 7e fe bb e4 df c8 bb 58 27 1c 3c 3d 68 70 3b
       -0.0077665756 -0.0061302055 0.009530865 0.0036683225
000330 a2 d4 15 bc f8 c5 5b 3c b6 10 8e 39 81 a8 df bb
       -0.009144934 0.013413899 0.000270968 -0.006825507
000340 bf 0a 5b bb e2 da e7 3b d4 0b 4f bc 9d 98 25 bc
       -0.0033423153 0.0070756534 -0.012637097 -0.010107187
000350 f8 db a4 3b 41 9d 96 bc d3 37 b3 b9 8e 3c be ba
       0.005031105 -0.018385531 -0.00034183133 -0.0014513896
000360 2d cb 09 3c 21 07 89 bb 09 9c 05 3c 45 53 f9 b9
       0.008410257 -0.004181758 0.008154877 -0.00047555022
000370 af 60 b4 ba a1 89 fe 3b 58 09 0e bb b9 98 da bb
       -0.0013761724 0.0077678715 -0.002167305 -0.006671038
000380 66 4a 0d ba 09 b0 21 3c 04 c3 04 bc 08 8d 26 3b
       -0.00053898094 0.00986863 -0.008103136 0.002541365
000390 91 dc b1 3b a4 8d 26 3b 94 07 bb 3b 4e b9 42 3c
       0.005427905 0.0025414014 0.0057076905 0.011885
0003a0 f0 64 00 bb 65 5b 94 3c e3 96 8b 3c ab 99 0b 3c
       -0.0019591413 0.018109987 0.017039722 0.008520524
0003b0 25 7f 78 3c a9 82 58 3c 32 49 ba bb d6 0b 43 3b
       0.015167032 0.013214746 -0.005684995 0.0029761693
0003c0 66 84 39 3c 41 92 69 bb d6 2a 96 bb 09 f2 1d 3c
       0.01132307 -0.0035640153 -0.004582743 0.009640225
0003d0 a8 2e f9 ba d2 c8 c1 3b 83 85 e3 3b 01 44 94 bc
       -0.0019011097 0.005913832 0.006943406 -0.018098833
0003e0 b8 b8 6a bb bb b5 d5 3b af a4 cf 3a f7 40 71 bb
       -0.0035815667 0.006521908 0.0015841926 -0.0036812404
0003f0 fb 06 19 bc ae 62 32 bc 14 ff df 3b f0 8e 57 3b
       -0.009340043 -0.010887785 0.0068358276 0.0032891594
